test/model_dqn.pt (torch, 243713 bytes, 12 tensors)

features.0.weight f4 [32, 13, 2, 2]
00000000: 05d9 81be f4a1 27bd 4179 31be 77ac 6fbe
00000010: 8736 66bd a658 dbbd 1e01 31ba 45be 30be
00000020: 6560 47be 0ab0 233d 85d0 a1bd adef 44bd
00000030: 5600 38be 7bdc 44be e250 87bc c9b4 38be
00000040: 0cdc 37be 5400 87be 406e cfbd 40c7 16be
00000050: 1f68 ebbc 7393 ebbd c8de b33d 0943 ef3d
00000060: e103 adbc fcf1 00be caad 483c 09c8 1dbe
00000070: 25b4 13be a9d3 68bd 5201 83be 9014 51be
00000080: ad83 c1bd d93d 8b3d b678 bebc d6e7 3cbd
00000090: 8b02 61be 60f3 b0bd ae65 a2bc 0f09 44be
000000a0: a83e 23bd aca4 e5bd a659 493b 0f92 1fbd
000000b0: 3b67 b4bd 6f1c a83c 81a4 fabd e178 8a3c
000000c0: 5f98 4fbd 18f5 3ebe 4f09 dbbd 8126 2bbe
000000d0: a410 9ebd 15e2 a6be 48ff e1be 85ad 62be
000000e0: e4b6 90be 4a32 b3be f76d 69be 5bc4 c5be
000000f0: 1880 00bf c462 893e c817 9ebd c4b8 06bf
00000100: 1364 aabe 69a6 2bbf 0f58 113e bd5f 5bbe
00000110: 3838 ffbd 456f bdbe 1067 c0be 8225 09bf
00000120: 318d 223d ded4 cfbd 6e52 dabd a061 c23d
00000130: 6dbf 38bf f7f5 4fbe a262 f3be 9dfc 17be
00000140: a68f c8be ad41 1abf b16a 29be 1720 84be
00000150: ab65 b0bd 5798 723d 00d3 c8bc 4556 d43d
00000160: bcca eebe bba2 eebd fa3c 5ebe 814f bcbe
00000170: c5e2 7bbe ecfb 16be 7e37 9fbe 032b 22bf
00000180: c06d ddbd 3f37 7ebd 2631 0fbe f208 01be
00000190: b6c9 fbbb 0557 1cbf c3f0 c3be 6326 cdbe
000001a0: 270d 73be e620 3abe 1d4e 67be 47e4 f9bc
000001b0: bbeb 18be 12d4 b4bd 3c02 91be 66d1 71be
000001c0: 868c d3bb d778 8cbd 675b 1cbe 6f76 32bd
000001d0: 173c 52be 4715 58bd 96e5 96bd f508 2cbe
000001e0: 4849 74be e569 4dbd ac9c e5bc 0537 2abe
000001f0: f714 9dbd 0d1e 043e e435 233c 0d37 b23d
00000200: a5e7 d3bd 9510 82bd 9e70 37be 55b2 3abe
00000210: 7c1c 40be b064 85bd a96c a7bc 1b4f 733b
00000220: c730 f03d e231 dcbd b47a d9ba 2ee5 d23c
00000230: b884 2abe 613d 8dbd 9bb9 9abc 0bd5 7c3c
00000240: c2af edbc 9cf7 5bba 4715 5fbe a4b1 3fbe
00000250: f2e7 e9bc bb28 cfbd 28ed 843d 57f5 fcbd
00000260: c906 52be 7b71 e9bd 5a86 6fbe 05ce bdbd
00000270: 3a0b 253e c731 093f d1e0 393f 9247 503f
00000280: 1cea 393f a932 413f bfec 463e 851f 81bd
00000290: 45dc 2ebf f444 223d 97a0 043e 5d6d 80bf
000002a0: 6960 803f 9c2d 9abe 1294 373e c9d5 24bf
000002b0: 0c39 2a3e 0b88 503f dd8a 62be c13f 423f
000002c0: 80df 743c 6675 053e 4442 ae3d 4075 82bc
000002d0: cbff 313e 9517 63bf 22ae fa3e cbc8 e0be
000002e0: 8802 c8be 73a2 01be 4109 7c3e 2dd4 54bf
000002f0: 95a1 0dbe 61e7 c93d 8802 173d 0f3d dbbd
00000300: 4a04 27bf 2a4e 1e3f 0989 3f3e 3c5f 56bf
00000310: 12e5 3dbf bee8 7b3d dda1 073f 3255 7abf
00000320: d99c 933d 7fb7 a5be 800b a63d eadb 7d3d
00000330: c64b 9d3e 0e5d 6e3f 8ba9 c9be bad4 463f
00000340: 46eb 913d f676 d8bc 6684 f7bd 0177 393d
00000350: d6b2 b3bb 2c98 4cbd 5cbe d7bb c3a6 76be
00000360: 7900 f9bd d84e 46be 739b 3abe a13a 0cbe
00000370: 5a6a 503d 8818 e2bc aa4f ba3c cb43 a5bd
00000380: 2780 42be 52d9 1fbe 21b0 923c d596 3b3d
00000390: e05b c9bc 931e 323d 7c92 e43d d074 c43d
000003a0: cd49 41be 055b 00bc ffdf 48be 8ee3 953c
000003b0: 7c7d ab3d 569f 34bd 891a 2dbd 2d3c 613c
000003c0: 17c7 13bd b34f 053e 35af a0bd 13e9 00bd
000003d0: 2c35 1abe 41bd 94bd 86da 4abe 15ef 98bc
000003e0: 5586 72bd a5d1 3fbc fac3 383d 18b3 dcbd
000003f0: d9d8 e9bd 5f52 84bc 4580 0bbe 130d 193d
-0.25360885 -0.040925935 -0.17331411 -0.23405634 -0.056204345 -0.10710268 -0.00067521806 -0.17260082
-0.19470365 0.039962806 -0.079011 -0.048080135 -0.17968878 -0.19224732 -0.01651806 -0.18037714
-0.17955035 -0.26367438 -0.101284504 -0.14724445 -0.028736172 -0.11502733 0.087827265 0.11682708
-0.021120014 -0.1259231 0.012248466 -0.15408339 -0.14424188 -0.05684248 -0.25586945 -0.20418
-0.09448943 0.06798906 -0.023250919 -0.046119533 -0.21973626 -0.0864017 -0.019823875 -0.1914408
-0.039854676 -0.11213049 0.00307236 -0.03895765 -0.08808752 0.02052137 -0.12238408 0.016903343
-0.05068242 -0.18648183 -0.10695135 -0.16713907 -0.07718018 -0.32594362 -0.44140077 -0.22136505
-0.28264534 -0.34999305 -0.22795855 -0.3862637 -0.50195456 0.26833165 -0.0771938 -0.5262568
-0.33279476 -0.67050797 0.14193748 -0.2142324 -0.12461895 -0.36998954 -0.3757863 -0.5357286
0.039685432 -0.10148023 -0.106602535 0.09491277 -0.7216709 -0.20308672 -0.47536188 -0.14842458
-0.39172095 -0.60256463 -0.16544606 -0.25805733 -0.086131416 0.059227314 -0.024514675 0.10368017
-0.4663905 -0.11652132 -0.21702948 -0.36779407 -0.24598224 -0.14744538 -0.31097025 -0.6334688
-0.10811949 -0.062064406 -0.13983592 -0.12601069 -0.007683958 -0.6107028 -0.38269624 -0.4006835
-0.23735486 -0.18176612 -0.22588392 -0.030504359 -0.14933674 -0.08829512 -0.28322017 -0.23615035
-0.0064559607 -0.06858986 -0.15269242 -0.04356998 -0.20530735 -0.052754667 -0.07368009 -0.16800292
-0.2385608 -0.050149817 -0.028028809 -0.16622551 -0.07670014 0.12902088 0.009961579 0.08701906
-0.10346917 -0.06350819 -0.17914054 -0.18232091 -0.18760866 -0.06513345 -0.020437555 0.0037126008
0.117280535 -0.10751702 -0.0016592355 0.025744047 -0.1665219 -0.06896473 -0.018887332 0.015431653
-0.029014472 -0.00083910837 -0.2178546 -0.18720108 -0.028552983 -0.101151906 0.064905465 -0.12351482
-0.20510401 -0.11398598 -0.23391095 -0.09267811 0.16117564 0.5359158 0.7260867 0.8135921
0.7262285 0.75467926 0.19426249 -0.0630484 -0.68304855 0.03961654 0.12951885 -1.0033375
1.0029422 -0.30112922 0.17927578 -0.6438871 0.16623324 0.81457585 -0.22123285 0.7587853
0.014945865 0.13033065 0.08508733 -0.01592505 0.17382734 -0.8870786 0.48960978 -0.43903193
-0.3906443 -0.12659626 0.24612905 -0.83136255 -0.1383117 0.09858585 0.03686765 -0.107050054
-0.6524092 0.6183802 0.18704619 -0.83739066 -0.7417766 0.061501257 0.5298136 -0.9778625
0.07207651 -0.3236656 0.08107662 0.061977305 0.30721873 0.9311074 -0.39387164 0.77668345
0.07124953 -0.026423912 -0.120858 0.045279507 -0.0054839654 -0.04994981 -0.006583972 -0.24087052
-0.12158293 -0.19366014 -0.18223362 -0.1369424 0.050882675 -0.027599588 0.022743065 -0.08069571
-0.18994199 -0.15610245 0.01790625 0.04579814 -0.024579942 0.04348619 0.11160752 0.09592593
-0.18875809 -0.007834201 -0.19616698 0.018296983 0.083735436 -0.044097267 -0.042261634 0.013747257
-0.03607854 0.13018684 -0.07845918 -0.031472277 -0.15059346 -0.0726266 -0.19809923 -0.01866869
-0.05921014 -0.011707698 0.045108773 -0.10776347 -0.114183135 -0.016152559 -0.1362315 0.037365984

features.0.bias f4 [32]
00000000: a39f b2bc 662a 9ebe c083 e4bc a1d2 033f
00000010: 6317 4dbe b2ce aebe 069b 25be 160b 04be
00000020: efbf 383e ad61 13be 3ea1 f9bd 4225 f3bd
00000030: 2bae 2b3e 452f 2f3c b1f2 81bd 78e3 2d3e
00000040: 2a7b 54be 5e20 b8bd 29a7 1fbd 4d14 66bc
00000050: ce7f 67bd 99d9 bcbe eabe 3ebe 56d5 fe3e
00000060: 5479 c1bd 8a34 28be 14d5 4cbc 6222 a9be
00000070: 0f15 2ebe f980 10be f2a6 34bd e54d 7abe
-0.021804636 -0.30891722 -0.027894855 0.5149327 -0.20028453 -0.3414207 -0.16172418 -0.12894854
0.18041967 -0.14392729 -0.12188958 -0.11872341 0.16765659 0.010692422 -0.06345118 0.16981304
-0.20750108 -0.089905486 -0.038977776 -0.014042926 -0.05651837 -0.36884764 -0.18627515 0.49772137
-0.0944697 -0.16426292 -0.012501974 -0.33034045 -0.1700022 -0.14111699 -0.044104524 -0.24443777

features.2.weight f4 [64, 32, 3, 3]
00000000: 2f36 79bd 4e81 94bd e623 8cbd 703e 3b3c
00000010: 41bb a8bc 17f4 d7ba fe5f 7d3c 0fd7 a8bc
00000020: 067d 45bd 5cc9 0fbc 4870 a7bd 7f16 4b3b
00000030: 5565 35bd 79f5 71bd c2c3 853b 5811 52bd
00000040: 278d 4c3a f9d5 833c 876a b1bd 8bfc 36bd
00000050: 15cb 81bc a9e3 87bd cc61 08bd ae49 d8bd
00000060: a750 143c cd2d 94bd b206 87bd 712b eebc
00000070: ddc2 85bd f8f1 43bd 57ed f2bb a301 87bd
00000080: b4a2 7abb a637 e5bb 3b8f e5bd 7a31 d9bd
00000090: 6612 15bc 06fc d0bd 7fed 5ebd 644d d1bd
000000a0: acfa 2abd 8cad 77bd 21c0 a3bd 7c26 e9bc
000000b0: d1a6 cbbd f22f afbd 282c ddbd 7852 8fbd
000000c0: 21db cdbd 2034 92bd d7aa 63bd cb25 01bd
000000d0: 6e18 33bc 49aa 8abc d204 ccbd 0fdd 37bc
000000e0: 9f36 87bd 1fc1 cebc 585a 51bc 46fa 833a
000000f0: ee01 62bd 725d 97bd a9cc dbbd abe6 85bd
00000100: 2752 8e3d b8f5 e83c 9374 f9bc 8d1b b43d
00000110: 1749 813d 27bd 363c 52c5 14bc 3b3a a13c
00000120: 2801 ebbd e0ea a8bd 7daa 95bc e0a0 94bb
00000130: ad03 00bc a9f5 dfbd bab5 7dbd f50c e7bd
00000140: c89c 87bd 2c80 edbc 8a88 86bd af34 cdbd
00000150: 5568 88bd b6ad 2ebd 5e16 1abd a844 5dbd
00000160: da22 2fbd ee36 14bd 1128 afbc 9b1f e93c
00000170: 137c 8cbc 420e a43d 7c46 e93c 4c91 873d
00000180: 7b18 7f3c 5eb6 e6bc 1b31 133b 05c1 8ebd
00000190: 7d77 3ebc 588b 9dbc 72ee 3ebd 0fe4 7d3b
000001a0: 24b6 663b 2803 a23a c88b c2bc fe67 b3bc
000001b0: 467d 9fbc 5e69 14bd b219 833b 070b 92bb
000001c0: 2013 0ebc b022 f0bd 07f4 77bd a18e 18bd
000001d0: c90d 5abd 1601 c2bd 9b57 9abc a8fb 00bd
000001e0: 6bf9 30bd 5ec3 57bd 32fb 1dbc 4fe5 d7bd
000001f0: 8efb afbd 54b1 60bd 4310 c9bc 523b 02bd
00000200: 380c 47bc 8c7d 27bc 0be3 0fbd 7c60 d8bd
00000210: b649 0abc 5cd0 bcbd 4924 41bd cadf 83bd
00000220: 501a 7bbd 9a87 8cbc a5ec 80bd 4f2d aa3b
00000230: 81cc c9bd 824b cebd fb92 8dbd bde4 bcbd
00000240: 5ffb 01bd 0085 a63d 681d 7c3d cc3c 913d
00000250: fcec 943d 5bc3 d33c e14d d23c 803f 4d3c
00000260: f7fb 543c f140 dfbb 3c73 b7bc 4e2e 5e3b
00000270: 5f51 b0ba db99 b1bc 95f5 03bd e839 d0bd
00000280: d370 08bd 65ab c3bd 4fda 233b 592e fdbb
00000290: 5e89 1bbb 34fc 6dbd 990a 583a 94d1 42bd
000002a0: 94c4 c3bd 3d46 a33b 1193 25bd f48b 67bd
000002b0: 269e afbd 255b 3ebd 71bc 44bd d2ea 65bd
000002c0: df20 94bd 54a3 d0bc 0f2a 98bd ea1f 84bd
000002d0: 05da a4bd a8bd 84bc 1716 4bbc 136a 55bd
000002e0: ecc1 a9bd 00c6 29bd 4951 fe3b 6308 eebc
000002f0: f6f8 933c ede9 eebd 26ef b4bd d78d 5dbc
00000300: e6fa 86bb 3929 23bd a83b b4bd 1f47 74bd
00000310: 775d 87bd c6b3 8bbd e3ef 93bd 8699 063a
00000320: 28b9 5bbc e95a a0bc 06c4 88bd ec14 6e3c
00000330: 436c d93c 70b8 523c aecb 9cbb 4464 bfbd
00000340: fdbd a43b 77a3 e0bd fe9d 42bd 9d75 2b3b
00000350: 8118 90bd 3efa 87bb 8c81 14bd 2078 dfbd
00000360: 1ba2 913c b6d9 aebd b4cb e8bc 3c48 82bd
00000370: 13e4 8dbb 0d13 023d 9c6f 23bd 7555 8fbc
00000380: b9a7 c73c 06d3 30bc 4978 7cbd f4a0 1abd
00000390: e274 2fbd df3e 113c 8064 3c3c cf11 a1bd
000003a0: de2e 553d c528 8d3b 0c8c 80bd fd1c 9ebd
000003b0: c06a 503c 402a 55bd 383d a3bd dacb 63bc
000003c0: 79b1 6bbd 9b2c 36bd fb93 aebd e194 8abd
000003d0: 15e4 70bd 2c8c 7ebc e8e2 73bd a1ed 73bd
000003e0: 923d 8abd 0703 6abd 8aea 0abd 7075 a4bc
000003f0: d049 363c c6a8 abbc ddb5 003d d110 a73d
-0.06084269 -0.072512254 -0.068427846 0.0114284605 -0.020597102 -0.0016475943 0.015464781 -0.02061036
-0.048214935 -0.008776035 -0.08175713 0.003098875 -0.04428609 -0.05907199 0.004082174 -0.05128607
0.0007803016 0.016093241 -0.086628966 -0.044674437 -0.015843907 -0.066352196 -0.03329639 -0.10560928
0.009052432 -0.07235298 -0.06593074 -0.029073449 -0.06531308 -0.04783818 -0.007413547 -0.06592109
-0.0038243951 -0.006995159 -0.1120896 -0.1060514 -0.009098625 -0.1020432 -0.054425713 -0.10219839
-0.041742966 -0.06046824 -0.0799563 -0.028460734 -0.09943927 -0.08554067 -0.10799438 -0.069981515
-0.10051561 -0.07138848 -0.055582847 -0.031530183 -0.010931117 -0.016926901 -0.09961857 -0.011222138
-0.06602215 -0.025238572 -0.012777887 0.0010069094 -0.05517762 -0.0739087 -0.10732395 -0.06538137
0.06949263 0.02843748 -0.030451095 0.087943174 0.06312769 0.011153496 -0.009080248 0.019681087
-0.1147483 -0.08247924 -0.018269772 -0.0045357794 -0.007813376 -0.10935528 -0.061940886 -0.11281768
-0.066217005 -0.028991781 -0.065690115 -0.10019814 -0.06660525 -0.042646132 -0.037618987 -0.054020554
-0.042757846 -0.036185198 -0.02138141 0.028457453 -0.017149007 0.08010532 0.028475992 0.0661951
0.015569801 -0.028163131 0.002245969 -0.06970409 -0.011625168 -0.019231483 -0.046614118 0.003874067
0.003520378 0.001236056 -0.023748294 -0.021900173 -0.019468915 -0.0362333 0.004000866 -0.004456881
-0.008671552 -0.11725366 -0.060535457 -0.037245397 -0.053235803 -0.094728634 -0.018840602 -0.031489998
-0.043206614 -0.05267655 -0.009642409 -0.10541784 -0.08592902 -0.054856613 -0.024543887 -0.031794854
-0.012148909 -0.010222804 -0.035128634 -0.10565278 -0.008440426 -0.09219429 -0.047153745 -0.06439169
-0.06130439 -0.017154504 -0.06295136 0.0051933895 -0.09853459 -0.10072996 -0.069128 -0.09223316
-0.031733867 0.081308365 0.06155148 0.07091674 0.07271764 0.025849989 0.025671901 0.012527347
0.012999526 -0.0068131615 -0.022393815 0.0033902111 -0.0013451985 -0.02167981 -0.032216627 -0.10167295
-0.033310723 -0.09554175 0.0025001948 -0.0077264723 -0.0023733 -0.058101848 0.0008241325 -0.04756315
-0.09558979 0.0049827383 -0.040423457 -0.056529954 -0.08575086 -0.04647364 -0.048031274 -0.056132145
-0.07232832 -0.025468506 -0.07429897 -0.064513996 -0.080493964 -0.016203716 -0.012395403 -0.052103113
-0.08288941 -0.041448593 0.007761155 -0.029056733 0.01806305 -0.116657116 -0.088346764 -0.013522587
-0.004119265 -0.039834235 -0.08800441 -0.05963814 -0.06609624 -0.068213984 -0.07223489 0.0005134571
-0.013410844 -0.0195746 -0.066780135 0.014531355 0.026540881 0.012861356 -0.0047850227 -0.09345296
0.005027531 -0.109686784 -0.047513954 0.0026162632 -0.07035924 -0.0041497042 -0.036256358 -0.10911584
0.017777493 -0.08537619 -0.028417446 -0.06361434 -0.004330167 0.03175645 -0.03990136 -0.017496804
0.024371969 -0.010792499 -0.06163815 -0.037751153 -0.042836078 0.008865087 0.01149857 -0.07864725
0.05204665 0.0043078386 -0.06276712 -0.07720373 0.012720764 -0.052042246 -0.07970661 -0.0139035825
-0.057542298 -0.044476133 -0.08524319 -0.06766678 -0.058811266 -0.015536349 -0.059542567 -0.059552792
-0.06750025 -0.057131793 -0.03391508 -0.02007553 0.011125997 -0.0209545 0.03142344 0.08157504

features.2.bias f4 [64]
00000000: 6199 8dbd c18e 3abc e489 02bd c5b5 b1be
00000010: d81d 2abd 1c72 a6bb 698b d5bc eaf9 34bc
00000020: e589 51bc c8c9 ccbc 3b0f 68bd 3ae0 36bd
00000030: 943b cabd 3b33 9bbe 99ae 11bc 41cf dfbc
00000040: 79db b9bd 6350 b9be 17c1 59bd 24f8 25bd
00000050: f064 9bbe 8911 27bd 110c 45bd ab7c 0bbd
00000060: b4d0 20bf 9713 9fbe 460e f4bd 88f3 02bd
00000070: a3d9 90be ff63 b8be ecf9 00bd de89 213c
00000080: f9f1 b4be ac65 18bf b5c9 c2be 243e 20bd
00000090: f0f7 bfbe 35e5 63be 14bb cabd 0a03 29bc
000000a0: 0bd0 c3bc e85c b5bd b994 96bd 08cf 47bd
000000b0: 852b febc a45b ebbd 1942 47bb 2054 02bd
000000c0: a63d 29bd 312c 9abd 2d7a 98be d682 a9bd
000000d0: 3b3e 0abd db1e d2bc 39e0 87bd 7c5e 28bc
000000e0: 64f7 07bc 6e1b 83bd bf36 f1bb 28c5 4cbf
000000f0: 6dd2 acbc d987 edbc 0df2 ecbd 173e 56bd
-0.0691402 -0.011386574 -0.031869784 -0.34708992 -0.041532367 -0.005079521 -0.026067453 -0.011045912
-0.012789224 -0.02499856 -0.05665515 -0.044647433 -0.09874645 -0.30312523 -0.008891725 -0.027320506
-0.09075064 -0.36194143 -0.05316266 -0.04051985 -0.30350447 -0.040788207 -0.04810721 -0.03405444
-0.62818456 -0.31069633 -0.11916785 -0.03197053 -0.28291044 -0.3601379 -0.031488344 0.00985953
-0.3534086 -0.5953014 -0.38044515 -0.039121762 -0.3749385 -0.22255404 -0.098989636 -0.010315666
-0.023902914 -0.08855611 -0.07352585 -0.048781425 -0.031026611 -0.114920884 -0.0030404388 -0.03181851
-0.04131856 -0.0752796 -0.29780713 -0.08276908 -0.033750754 -0.025649479 -0.06634564 -0.010276433
-0.008298729 -0.06401716 -0.0073612626 -0.79988337 -0.021096433 -0.028995441 -0.11569605 -0.052305307

features.4.weight f4 [64, 64, 3, 3]
00000000: e9f2 3abd 2913 61bd 4ac0 1bbd 00a2 94ba
00000010: a65d 28bc 89ba cabc c884 10bd 586a 023c
00000020: ad6f a43b 3a35 1f3d e876 c63d 4495 893d
00000030: b3cf a23d a2f3 ba3d 4bb0 df3d b183 603d
00000040: 8a26 593d 87ba 4b3d 6553 f23c b859 b23d
00000050: c858 c33c 4c9b 3d3d 3e95 ac3c 2992 563d
00000060: 04db 933d 96b5 4b3d f45a 213d aeb0 84be
00000070: 0c67 95be 614f 92be dcb8 95be 9818 9cbe
00000080: 2f7f a0be 19aa aebe e636 a0be 36ef a1be
00000090: 7f8b 723d bced 803d 9b26 3d3d 4516 a73d
000000a0: a4f7 113d 476b a13d db4f ad3d 7a1b 393d
000000b0: da0c e63c 5f55 843d fc8c 5b3d 4e2c 123d
000000c0: 49a8 a53c 50e0 833d 80c3 af3d f337 b83d
000000d0: b3c3 4b3d 5872 4d3d 85d1 413d 6757 b33d
000000e0: f0e9 a03c f01e c53d c948 eb3c 4739 413d
000000f0: c774 a63d d16e be3c 7959 433d 01b6 3c3d
00000100: 0c47 cc3c 4a0e cc3d 461b 153d 6109 b33d
00000110: 4ab7 733d 15a7 183d 6815 c53d 0077 8c3d
00000120: 333c 393d 0a81 803d c0fa c83d 03a8 da3c
00000130: a436 773d 6bef f83c ae41 b73d 53fb 8c3d
00000140: fa0b c03d d27c 603d 04dc 363d bff6 9d3d
00000150: 0fd3 b13d 9daf 7b3d d12d d73d dd6c 673d
00000160: 1854 403d 6ccd b53d d9f2 c83d d347 423d
00000170: b366 3d3d 7b2e b23d 240d 4b3d 9b63 b63d
00000180: 282c 893d 00b8 903d 500e b93d f489 e33c
00000190: 96f7 6f3c 4a30 283d b4fb baba c45f c03c
000001a0: d6a3 1b3d 80de 303d 1946 083d 00b7 773c
000001b0: 06d8 203d ff02 d93d 5359 ab3d 1acd 073d
000001c0: 45ac 7a3d 359a 143d d709 653d 73e8 703d
000001d0: b5d8 3f3d 488e 913d c0b3 c63d 6c8d de3d
000001e0: a49f 573d 126b e93d dfc5 ea3d 69bf d33d
000001f0: 6340 a73d 47ca 2b3d cc99 4a3d e321 863d
00000200: 8e94 db3d cd98 963d fafb 943d b8dc 873d
00000210: 3d5e be3d 9255 1a3d 931c b33d 3e29 5a3d
00000220: 244e c83d 6fd5 683d e0cb c73d ad70 303d
00000230: 1575 623d d32a b73d ac91 5e3d 3a2d 123d
00000240: d1ff 873d fbdb 973d fdb8 9b3d 5b59 993c
00000250: 4a8a 933d 6bb8 ce3d 56bf 543d 5b8f a33d
00000260: f283 bf3d 8d8c 5f3d b45d 0f3d e041 853d
00000270: 8f30 dc3c 0a77 0f3d 3b66 a33d f39d ee3c
00000280: 9ce4 3d3d 05ed ba3d a8d7 eabc 737a 083d
00000290: f260 ff3c ac3a 403c 665b dfbc e75c dcbc
000002a0: 6318 2a3d 8ecf c93c 6aa6 6fbc cb8a 6dbc
000002b0: da7d 70bd b623 9bbc a366 08bd f3f3 9cbc
000002c0: 0a39 a2bc 5bcc 22bd 684d 5dbd 8587 523c
000002d0: 3448 96bd 9334 afbd 568b b5bd 020a 8ebd
000002e0: 32d5 14be eb16 bebd d03b 86bd 49a3 b8bd
000002f0: dc57 f7bd 5357 bf3c c160 1e3d effb 753d
00000300: e371 733d b400 953d 9487 ad3d 5fdb fb3c
00000310: 48a0 c03d 80d7 aa3c 2a4d 213c 0186 2fbd
00000320: 0808 5fbc 6954 67bc dea0 c3bc 7db6 44bc
00000330: bfc2 da3b 2816 e6bc 3933 e8ba 2b9e 7a3d
00000340: 16c6 d93c e5f3 bf3c f8a5 093d d3b8 e93b
00000350: 813d 663d f229 ac3b 807f f33c efcb 873d
00000360: f42d 1b3c 6c2d 273d 21cb 3c3d 9004 0f3d
00000370: 407b 333d 6114 45bc 553f 033d b328 3f3d
00000380: 2fc7 aa3b 50f2 ab3e c286 b83e 823c c13e
00000390: b96b c13e 039c b73e 2b1d ad3e a7ed 9e3e
000003a0: 36a1 a53e dc3e a43e 54c2 c83c 2880 0c3d
000003b0: 03ba 853d 4d55 733d 37bf 943c 26bf c53d
000003c0: 5af9 083d dddb ae3d e2e2 a03d 4492 5cbc
000003d0: aea3 0f3c 3188 353b 90ff e6bc e040 47bd
000003e0: 3216 0abd c935 86bc 6c0b 5cbd 894b 14bd
000003f0: 7d77 e13d 4b44 183e d12f 273e f3dd d93d
-0.045641813 -0.054949913 -0.038025178 -0.0011339784 -0.010276234 -0.02474715 -0.03528288 0.007959925
0.0050181956 0.03886912 0.09690648 0.06717923 0.07949772 0.091285005 0.10922297 0.05481309
0.05301527 0.049738433 0.029580781 0.08708519 0.023846045 0.04629068 0.021067258 0.052385483
0.07219508 0.04973372 0.03939338 -0.25916046 -0.2918018 -0.28576186 -0.292426 -0.30487514
-0.31347033 -0.3411415 -0.31291884 -0.31627816 0.059215065 0.06295344 0.046179395 0.081585445
0.03563656 0.0788179 0.08462497 0.04519222 0.0280823 0.06461596 0.05360125 0.035686783
0.020221846 0.064392686 0.085822105 0.089950465 0.04974718 0.050157875 0.047318954 0.08756905
0.0196428 0.096250415 0.02872123 0.047173765 0.08127742 0.0232462 0.04769275 0.04607201
0.024936222 0.09963663 0.036402963 0.08742023 0.05950097 0.037268717 0.096232235 0.06858635
0.045223426 0.06274612 0.09813452 0.026691442 0.060354844 0.0303876 0.08948074 0.06883874
0.09377284 0.054806538 0.044643417 0.07713079 0.08682834 0.061446775 0.10506786 0.056500304
0.046955198 0.08877072 0.098119445 0.04743178 0.04624052 0.08700272 0.04957308 0.08905717
0.06697875 0.07066345 0.09035933 0.027775742 0.014646431 0.041061677 -0.0014265687 0.023483165
0.037998043 0.043180943 0.033269975 0.015119314 0.039268516 0.105962746 0.083666466 0.033154584
0.061199445 0.036279876 0.055917587 0.05881543 0.046837527 0.07107216 0.09702253 0.10866818
0.05264248 0.11397375 0.11463522 0.10339243 0.08166578 0.041940954 0.04946308 0.06549432
0.10721694 0.07353363 0.07274623 0.06633896 0.09295318 0.037679262 0.087456845 0.053261988
0.09780529 0.05684417 0.09755683 0.043076206 0.05528744 0.08943715 0.054338142 0.035687663
0.0664059 0.07415005 0.07603643 0.018719366 0.07204111 0.10093769 0.051940285 0.07986327
0.093513384 0.0545774 0.03500147 0.06506705 0.026878623 0.035025634 0.07978483 0.02912805
0.046360597 0.09127239 -0.028667286 0.0333199 0.031174157 0.011732738 -0.027265262 -0.026899768
0.041527163 0.024635103 -0.014627079 -0.014498423 -0.05871377 -0.018937927 -0.033301007 -0.019159293
-0.019802589 -0.03974567 -0.0540289 0.012849693 -0.073379904 -0.085549496 -0.08864467 -0.069355026
-0.14534453 -0.09281715 -0.06554377 -0.09015519 -0.12077305 0.02335707 0.03866649 0.060054716
0.059434783 0.07275525 0.08473125 0.030744253 0.09405571 0.020854712 0.0098450575 -0.042852405
-0.013612755 -0.014119246 -0.023880418 -0.012006399 0.0066760476 -0.028086737 -0.0017715461 0.061185997
0.026583713 0.023431728 0.033605546 0.0071326285 0.056211 0.0052540237 0.029723883 0.06630694
0.009471405 0.040814802 0.046092156 0.03491646 0.043818712 -0.0120287845 0.03204282 0.046669673
0.005211733 0.33583307 0.36040312 0.37741476 0.37777498 0.35861215 0.33811316 0.3104069
0.32349557 0.32079208 0.024506725 0.034301907 0.065296195 0.05940752 0.018157585 0.09655599
0.033440925 0.08538029 0.078557745 -0.013462607 0.008767052 0.0027699585 -0.028198034 -0.048645854
-0.033712573 -0.016383069 -0.05372183 -0.03620485 0.11009119 0.14869802 0.16326834 0.106380366

features.4.bias f4 [64]
00000000: ea45 87bd cbbc d4bc a67a 9b3d d937 e6bc
00000010: 9137 b0bd c0ff 0b3d f9af de3c 3bfe 7f3d
00000020: 5c5d 0c3d 460c 29bc da5d 753c 4197 22bd
00000030: 2aff df3c fe24 753c cb0d 9e3b 3597 d1bc
00000040: 4408 97bb 275c d1ba 31bd d7bc 3925 77bc
00000050: af53 b5bc e4e6 6e3c 5e12 d13e 4c77 ebbc
00000060: 0121 f0bc 33bc 06bd 3589 02bd 7427 d63c
00000070: 37f3 063d 0502 51bd 299a ebbc 71fe b7b9
00000080: fe00 e63c 3444 8abd f424 823c 3ade 1d3d
00000090: 970b babc eb68 273d 869f 2e3d b874 a73c
000000a0: a85b d1bd 78f9 c83c 97e6 e1bc 821b e83c
000000b0: d1d4 afbb 92ab 32bd 6ca2 4a3c 8418 fdbc
000000c0: 24ec f1bc 3843 adbc 5945 063d 93fb 11bd
000000d0: 446a 48bd b594 893c 48cd b43a f148 85bc
000000e0: 66fe f33c 67db d23b c8ec c2bc 41e2 a5bc
000000f0: 40e9 d93c 9c9c 53bb c453 5ebb eb2b 1ebd
-0.06605132 -0.02596893 0.07591753 -0.028102802 -0.086043485 0.03417945 0.02718352 0.062498312
0.034268722 -0.010317868 0.014975989 -0.03969503 0.027343351 0.014962433 0.0048234216 -0.025584796
-0.0046091396 -0.0015972898 -0.02633533 -0.015084558 -0.02213463 0.014581416 0.40834326 -0.028743409
-0.029312612 -0.032894325 -0.031869132 0.02614186 0.03294679 -0.051027317 -0.028760033 -0.00035094054
0.028076645 -0.0675129 0.015886761 0.03854201 -0.022710605 0.040871542 0.042632602 0.020441398
-0.1022256 0.024533018 -0.027575774 0.02833343 -0.005365946 -0.043620653 0.012367826 -0.030895479
-0.029531546 -0.021150216 0.03278098 -0.03564031 -0.048929468 0.016794542 0.0013794089 -0.016270133
0.029784393 0.006434846 -0.023794547 -0.020249488 0.02660048 -0.0032289391 -0.003392444 -0.038616102

fc.0.weight f4 [32, 71]
00000000: 7b56 0c3e 5c85 173d c866 e0bd 78cf 813d
00000010: f6a3 043e 7c05 39be ad37 1cbe fcc1 9c3e
00000020: a7bf a3bd ee07 963c cf7e c2bd e4db 053e
00000030: dced 57be a833 91bc 1d92 92bc a990 e9bb
00000040: 9db3 2e3c b584 613b 2164 1c3e f4c9 bd3d
00000050: 82ac 903d e843 86bd c193 173f 2e22 e83d
00000060: c70e 513e 16c0 233d 3dbe 303d b72d f0bd
00000070: ea23 8ebd 895f 093e c835 383e e948 4f3a
00000080: 23f3 54be db64 f33d 2bd2 e4bd 8050 66bd
00000090: b71a fb3c 2a84 b3bd ed3e 17be 6409 35be
000000a0: 7172 1c3e 5d28 d3bd 80fd 383e 899b eebd
000000b0: 2df4 df3c 9504 de3d 8489 93bc 8f7d 1b3e
000000c0: ddcb 423d 0afb 313e 089f 4ebe b3b1 c93d
000000d0: 5dc0 693e eab1 19be 48f6 6ebb 2bc3 7d3c
000000e0: 27e9 4cbe 2e65 2fbd 31fc 393e dbeb 333e
000000f0: 084e 4fbe e17c 483c 379a 913c 1d57 ce3d
00000100: 7dfe 3abf f0e7 acbe d179 15bf 96b5 69be
00000110: 56d7 cdbe 32ec 5abd 9eb1 9c3d e77e a2bd
00000120: 97bb 573c 7875 1bbd 4a4b 14be b7bc e53d
00000130: 46df c83c 28a7 8dbb 56a2 4d3d b6ca 4bbd
00000140: 7476 203e 071b dabd c287 aabc 27eb c53c
00000150: af17 87bd 2372 87bd b199 073e 2c58 cabc
00000160: 7f49 803d 4375 cebd 7298 253e 1bca 183d
00000170: 6087 9b3d 3495 853c 500f 55bd 6900 a93d
00000180: bfe3 0cbe 4d94 843d 27a2 e6bd 1b96 133e
00000190: 5c88 903d 3d92 54be 833e 01be 36ee 5ebe
000001a0: 3a95 183e e836 12bb cecf 173e 856a 513e
000001b0: 76c6 4e3e 31a5 b73c 1a3e e2bc 5955 19be
000001c0: 7507 07be 7458 a6bd ae50 e13c 2f8e 353c
000001d0: 9de6 8db9 e2d8 15be 87ea b53c edf5 9d3d
000001e0: defe 033e 34c7 86bc 98cd e13d 9a95 dfbc
000001f0: 84c1 62bd a721 04bd 5553 923a cd3a 3cbe
00000200: 4b20 123d 24de f13d b8ff c6bc 11d3 0cbb
00000210: dd27 a93c be0b ff3d 0ab8 debd eff5 febd
00000220: 20e0 b5bd 8129 8d3d cb95 fe3c afa7 11bd
00000230: 41fb a13d 5932 17be b4ca b23d 95f5 0a3d
00000240: ff6a c9bd 05db 133d 5654 eb3d 59b2 27bd
00000250: ff29 11bd 4631 f1bb 751c 19bd 5ffd 6b3c
00000260: c9c6 9bbc 877d 753d c060 08bd 52cb 8dbc
00000270: 96c3 9cbb ed12 db3c ae91 ca3b 79d1 0d3b
00000280: 84b8 f73c 6115 953c 00f0 f83c 1205 80bc
00000290: f1fa 013f 7d0a f73c d030 2f3d cbc9 163d
000002a0: e974 1e3d a298 b8bc 0b68 25bd 4485 893d
000002b0: 7194 d23c 165a e839 da77 b6bc 17a5 b23d
000002c0: b5ed 7fbd 9f0e 5ebd 955c d93c 2a28 62bd
000002d0: 97c1 5fbd 6455 d2bc de77 ff3d 5732 cfbc
000002e0: db72 bb3c dc3c 3ebd 12b7 5f3b b828 6b3d
000002f0: d03b 8dbc 7b31 f43c 4ab4 203d 7b9e d43c
00000300: 989b 1fbd 61a9 3d3d 36ca 783d b301 a2bd
00000310: ca13 e0ba 67f8 9c3c 2d44 e9bc ed5a 0abc
00000320: ae7c cc3c 0e4b b53c f0df 06bd d4b2 6b3b
00000330: 3b54 703b d62a 543d 35b1 8cbf 6411 16bf
00000340: 74ea 0b3e 77b3 1bbf 7b43 97bf 47a2 293d
00000350: 4b4a e7ba 2d1e e2bd 88e0 da3c d1ad 34be
00000360: 6ca5 263d 1849 2c3d 31b8 b23c 2358 f73d
00000370: a017 d33d b08d 17be 45e8 12bd 3416 0d3d
00000380: 7560 30bc 94ec 71bd bc76 0dbe 55ac 293e
00000390: 2af1 f13d 5677 41bd 6ca4 293d 7ba0 32be
000003a0: 161d 8a3d f9f2 fd3c cf0c 6c3c fe68 8c3c
000003b0: 4efe 98bd 6284 18be 1ad6 72bd 7173 1dbe
000003c0: 41cf cabd 9125 83bd 37d2 d63c 67fc 52bd
000003d0: c7f7 923d 25fe f3bd 7d08 fbbd c9cd af3d
000003e0: ad05 b63d b136 c53d 6d98 edbc e7cb 043e
000003f0: a081 bdbd 389a 26be 9a41 2dbe 9301 cfbd
0.13704865 0.036992416 -0.10957104 0.063384 0.12953171 -0.18068498 -0.15255614 0.30616748
-0.07995539 0.018314328 -0.09496843 0.13072163 -0.2108683 -0.017724827 -0.017891938 -0.0071278405
0.01066294 0.0034411375 0.15272571 0.09267035 0.07064153 -0.06555921 0.5920983 0.11334644
0.20415793 0.03997811 0.043150175 -0.117274694 -0.06940444 0.1341535 0.17989266 0.0007907288
-0.20795874 0.11884471 -0.11172899 -0.056229115 0.030652387 -0.08765443 -0.14770098 -0.17679363
0.15278031 -0.10310433 0.18065453 -0.1165076 0.027338112 0.10840718 -0.018009908 0.15184616
0.0475577 0.1738092 -0.20177853 0.098483466 0.22827287 -0.15009275 -0.0036462713 0.015488426
-0.20010816 -0.0428211 0.1816261 0.1757044 -0.2024461 0.012236805 0.01777373 0.10075209
-0.7304457 -0.33770704 -0.58389 -0.22823176 -0.4020335 -0.05344791 0.07651065 -0.07934361
0.0131672835 -0.037953824 -0.14481845 0.11217635 0.024520528 -0.004322905 0.050203644 -0.049753867
0.15670186 -0.10649686 -0.020816687 0.024159981 -0.06596314 -0.06613567 0.13242222 -0.024700247
0.06264018 -0.1008096 0.16171435 0.037302118 0.0759418 0.016306497 -0.052016556 0.08252031
-0.13758753 0.06473599 -0.11261397 0.1441273 0.070572585 -0.2075891 -0.12621503 -0.21770558
0.14900675 -0.0022310559 0.14825365 0.2045079 0.20192894 0.022417637 -0.027617503 -0.14973964
-0.13186438 -0.0812234 0.027504291 0.0110812625 -0.00027065436 -0.14633515 0.022206558 0.07712922
0.12890193 -0.01645241 0.11025542 -0.027293015 -0.055360332 -0.032258656 0.0011163751 -0.18381806
0.03567533 0.11809948 -0.024291858 -0.002148811 0.020648891 0.124534115 -0.108749464 -0.12449252
-0.08880639 0.06892682 0.031077286 -0.035560306 0.07909251 -0.147653 0.08730069 0.03392561
-0.09834861 0.036097545 0.11490695 -0.04094157 -0.03544044 -0.00736061 -0.037380654 0.01440367
-0.019015687 0.059934165 -0.033295393 -0.017308865 -0.004784058 0.026742423 0.006181917 0.0021639748
0.030239351 0.01819867 0.030387878 -0.015627418 0.5077353 0.030156368 0.04277116 0.03681354
0.038685713 -0.022533718 -0.040382426 0.067148715 0.025705548 0.00044317608 -0.022273947 0.08722895
-0.062482554 -0.054213163 0.026533404 -0.055214085 -0.05462798 -0.025675483 0.12474035 -0.025292559
0.022881916 -0.04644476 0.0034136218 0.05741188 -0.017240435 0.02980875 0.039234437 0.025954476
-0.038966745 0.04630411 0.06073972 -0.0791048 -0.0017095741 0.019161416 -0.028474892 -0.00844453
0.024961796 0.022130515 -0.032928407 0.0035964744 0.00366713 0.051798664 -1.0991579 -0.58620286
0.13663656 -0.60820717 -1.1817468 0.041414525 -0.0017646042 -0.11040912 0.026718393 -0.1764443
0.040685102 0.042061895 0.021816345 0.120773576 0.103072405 -0.14800143 -0.03586604 0.034445003
-0.010765185 -0.05906351 -0.13814825 0.16569646 0.118135765 -0.04723295 0.04141657 -0.17444031
0.06743829 0.030999647 0.014407351 0.017139908 -0.0747038 -0.1489425 -0.059286214 -0.15376069
-0.09902812 -0.064036496 0.026223285 -0.05151024 0.07176166 -0.119137086 -0.122574784 0.08584172
0.08887801 0.09629572 -0.029003346 0.12968408 -0.0925324 -0.16269767 -0.16919556 -0.10107722

fc.0.bias f4 [32]
00000000: 12b7 d7bd fcef 10bd 089a febd 55fb 333d
00000010: 8cc5 50be d47f 14bc 3d13 11be f756 493d
00000020: df6c 023d 5842 383d 9bd0 18be 0464 a13c
00000030: 20cb 48bc 5c6a d0be 8016 06be ba28 50be
00000040: 7612 2d3d d219 84bc 2d94 e8bd 3f6e 5ebd
00000050: 8ab2 e1bd 4ab6 2c3d 40fc 8cbd 32be 9fbd
00000060: 86ff a9bd 0917 f33b 37ef 43bd 5506 1ebe
00000070: c1aa f2bd 383e 27be a187 b0bd bf33 c2bd
-0.10532965 -0.035385117 -0.12431723 0.04394086 -0.20387858 -0.00906368 -0.14167495 0.0491552
0.03184211 0.044985145 -0.14923327 0.019701011 -0.01225546 -0.40706146 -0.1309452 -0.20328036
0.042253934 -0.016125593 -0.11356387 -0.054304358 -0.11020382 0.042166032 -0.0688405 -0.07799949
-0.0830069 0.0074185175 -0.047835555 -0.15432103 -0.11848975 -0.16332328 -0.08619619 -0.09482526

fc.2.weight f4 [16, 32]
00000000: 668f 72bd fe97 c6bd 0691 e3be f47b 0cbe
00000010: 751b 05be 7eea 1cbe 263a ee3c f473 85bc
00000020: ae04 a5bc ad2b d2bd 52c3 2dbe 08ae cdbd
00000030: 7b75 d23d 5ed6 ebbc bb10 973c 116d 0b3e
00000040: ca41 773d 5328 fb3d 1b25 1f3d 5eef 203e
00000050: 0ca6 dfbd 8697 9f3c fd0a 233d ff7a 04be
00000060: c23f d5bd 2238 24be 8286 80bd 4c5a 963d
00000070: cd4b 323e fbb0 213e 963f b7bd a9ae 12bd
00000080: 4403 96be e15b 1cbe 1780 b6be 3b1f 2ebd
00000090: 3cd7 003d 80f1 3d3d 2446 5f3b b8d1 53bd
000000a0: 17a3 2abd 32d0 01be a44c 813d a814 553e
000000b0: b172 dcbe e244 bc3c 2938 153e f8fc 543c
000000c0: 8fb1 d93b 431e 293e e6ea 03be 2741 cc3c
000000d0: 0a91 dcbc 3a3c 0f3e 3533 033e acc3 27be
000000e0: 8a0a 93bd 31ce 06be c114 dabc 612b 023e
000000f0: 6d31 0cbd d901 b1bd cbbb 57be 8b2a a9bd
00000100: fc36 93be 1305 68bc e6e4 61bd d324 243e
00000110: bdb1 7abe 8a1a 28be 41c5 643d 4036 263e
00000120: 2834 e83d 8207 243e d501 85bd 5af4 023e
00000130: 3b3d 84be a58f 84bc f3a1 b1bc 2f05 d0bc
00000140: 32f0 003e 1fff 10be e72c 28bc d492 d7bc
00000150: c1fe 033e 066f d7bd 48d5 23be 1895 b83d
00000160: 4994 bdbd 05b6 9f3c 7cee 103e fb05 7e3d
00000170: 9c18 90bc 283c ea3c 22f7 59be 4f3a 5c3d
00000180: d217 58be d83d 743d eefe 9abd 6398 62bd
00000190: 838c 803d 6625 3abd 9700 b3bc 24f2 8bbc
000001a0: 6b4d 00be ab9c d03d 56f9 06be 4fe2 dfbd
000001b0: 9e2c aabd 5d28 2a3e acb5 fc3d 2d1b 103c
000001c0: 9bcd aebb 33c1 1dbd d210 66be 18bc fcbd
000001d0: 0800 07be 6b4a 46bd 240b a13d 3444 0dbe
000001e0: 5c4a e13c 5b4c 2f3e f9a5 15be 1555 c03d
000001f0: 7bf7 173e bfd2 00be 4017 2abe 78fc 05be
00000200: b773 183b a241 553d 789f dabd 1579 23bd
00000210: 657f 0ebe 93a8 293e 2754 b93c e121 f53d
00000220: 7f7c 18be e8cf f53d d52f 8f3d c901 f63d
00000230: 822e b0bd ce16 963e 39c4 aebd 2f56 203c
00000240: 35db 0bbe eb05 dabd 4061 88bd a671 41bc
00000250: a2b0 263e bd82 cbbd 4dd0 bb3c bbc5 f93d
00000260: 2ab5 2f3e 724a ca3d 4725 5f3d ff71 493e
00000270: 0e8b e33b 9893 813c 3e2e c83a afd8 0cbe
00000280: 133d 69be 1ce9 073d ce3d edbe 0773 853d
00000290: f7f0 b7bd e08b 14bd dbec 8dbc fa6c 2e3e
000002a0: adb7 273d 13da ee3d cc94 1cbe 2415 14be
000002b0: 2e7a 4cbe 445e c23e 5f09 6d3e 247b 22bd
000002c0: b0ad 09be 35d6 31be b408 6dbe f7ec 043e
000002d0: 559e 1f3d e6df a3bd acc8 6e3b 7817 63bd
000002e0: 1ad0 46bd 9718 c93d f6b1 3d3e 5b39 2ebd
000002f0: 3b24 c0bd 6c4e 553d dfed 33be d25d f9bc
00000300: db19 c0bc a555 ecbd 0176 9f3c 895e d73d
00000310: 8767 37bd 44aa a1bd ae1c 5dbd 22fb eebd
00000320: 4738 18bd 5cab fbbd 03d3 77bd ced3 7cbd
00000330: 1ccd c4bc 335e a53e dc29 85bd 5ba8 d63d
00000340: f8a3 51bd 9b50 423c 77fb 8a3d 8078 bf3d
00000350: e652 18be 60cc e43d c543 183e e886 05be
00000360: 857c 83bd 7ace 823d 81c6 003e 9d88 2c3d
00000370: 5222 d4be 55bb b8bd 219d 223b 2059 a33d
00000380: fb80 c4bd 1062 4fbe f0e8 74bd 0ad7 7fbd
00000390: 7559 d0bd cb5e 10be 90ee 22be 781a 23be
000003a0: ca62 023e dad3 0fbe f10b 08bd 7469 943c
000003b0: 06b9 183d f84f b03e fdb6 b53c 5334 f3bc
000003c0: 60c7 c1bd 72b7 293d 0180 b13c e4f4 07bd
000003d0: e499 b8bc 781d 29bc 03c6 d93d 5a8a e1bd
000003e0: a989 dcbb 4c4c d33d aed7 e63d 86e5 07be
000003f0: 47a7 a73c 4148 31bc 59cd 7abd 4154 b1b9
-0.059218787 -0.09696959 -0.44446582 -0.1371916 -0.12998755 -0.15323827 0.029080462 -0.016290642
-0.020143833 -0.10262237 -0.1696904 -0.100429595 0.10276314 -0.028788742 0.018440595 0.13615824
0.060365476 0.122635506 0.038853746 0.15716311 -0.10920343 0.019481432 0.0398054 -0.12937544
-0.104125515 -0.16037038 -0.06275655 0.073414415 0.17411728 0.15790169 -0.08947675 -0.0358111
-0.29299366 -0.15269424 -0.356446 -0.042510252 0.031455263 0.04637289 0.0034068907 -0.051713675
-0.04165944 -0.12677076 0.06313446 0.20808661 -0.43056253 0.022982065 0.14572205 0.012999766
0.006643481 0.1651545 -0.12882575 0.02493341 -0.026924629 0.13987818 0.12812503 -0.16383237
-0.071797445 -0.13164593 -0.026621224 0.1271186 -0.034226824 -0.086429305 -0.21067731 -0.082600676
-0.28752887 -0.014161366 -0.055149935 0.16029672 -0.24481864 -0.16416374 0.05585218 0.16231632
0.11338073 0.16018489 -0.0649449 0.12788525 -0.25827965 -0.016181776 -0.021683669 -0.025393097
0.12591627 -0.14159821 -0.010264612 -0.02631513 0.1289015 -0.10519223 -0.15999329 0.090128124
-0.09256799 0.019495973 0.14153475 0.062017422 -0.01758986 0.028593138 -0.2128568 0.053766545
-0.21102837 0.05962929 -0.07568155 -0.05532111 0.062768005 -0.045445822 -0.021850867 -0.017083235
-0.12529533 0.10186132 -0.13181052 -0.10931837 -0.08309291 0.1661696 0.12339339 0.008795542
-0.0053345687 -0.038514327 -0.22467354 -0.123405635 -0.13183606 -0.048410814 0.07863453 -0.13795549
0.027501278 0.17118971 -0.14614095 0.09391228 0.148405 -0.12580393 -0.16610432 -0.1308459
0.002326233 0.052064545 -0.106749475 -0.039910395 -0.13915785 0.16568212 0.022623135 0.119693525
-0.14891241 0.120025456 0.06991545 0.12012059 -0.08602621 0.29314274 -0.0853352 0.009786173
-0.1365784 -0.1064566 -0.06659174 -0.011806881 0.16278318 -0.09937046 0.022926474 0.12195917
0.17158952 0.098774806 0.05447891 0.19672392 0.006944067 0.015817448 0.001527257 -0.13754533
-0.22777204 0.033181295 -0.46336216 0.0651608 -0.08981507 -0.036266208 -0.017324856 0.17033759
0.04094665 0.11662688 -0.15291137 -0.1446119 -0.19968483 0.37962544 0.23148106 -0.039668217
-0.13445163 -0.1736687 -0.23147851 0.1298102 0.038969357 -0.080016896 0.0036435528 -0.055442303
-0.048538305 0.09819143 0.18524918 -0.042535167 -0.093819104 0.052076742 -0.1757121 -0.030440245
-0.023449829 -0.11539773 0.019465448 0.10516078 -0.044776466 -0.07893804 -0.05398243 -0.116689935
-0.037163045 -0.122885436 -0.06050397 -0.06172543 -0.024023585 0.3229843 -0.06502125 0.1048133
-0.051181763 0.011860038 0.06786244 0.093491554 -0.14875373 0.11171794 0.14869602 -0.13039744
-0.064202346 0.063870385 0.12575723 0.042122472 -0.41432434 -0.09020106 0.0024812894 0.079759836
-0.095949136 -0.20252252 -0.05979246 -0.062460937 -0.101733126 -0.1409866 -0.15911317 -0.15928066
0.12732998 -0.14045659 -0.033214513 0.01811669 0.037285827 0.3443601 0.022181982 -0.029688036
-0.09461856 0.041434713 0.021667482 -0.03319253 -0.022534318 -0.010321967 0.10633471 -0.110127166
-0.0067302776 0.10317287 0.112716064 -0.1327115 0.020465506 -0.010820449 -0.06123099 -0.00033822845

fc.2.bias f4 [16]
00000000: 6fb7 95be 2b61 dabe 5ad9 6fbe 42b3 16be
00000010: e284 13bd 312f 78bd 7bf7 a1b9 5208 01bb
00000020: b8c1 d1bc 0505 45bd bf47 9ebc da08 e9bd
00000030: a68f 83bd 6223 15bd d9a5 53be 2206 e3bb
-0.2924151 -0.42652258 -0.23422757 -0.14716819 -0.0360154 -0.06059188 -0.000308927 -0.0019688797
-0.025605068 -0.04810049 -0.01932132 -0.113786414 -0.06423883 -0.036410697 -0.20668735 -0.0069282213

fc.4.weight f4 [6, 16]
00000000: 9037 8b3c 2fe9 a8bd c664 963e 814d 0ebe
00000010: 92e4 103e 3074 2e3e 6712 dab9 5b46 debd
00000020: 7fc1 cd3d 1a48 ad3b a34d 293d 2b5e 03be
00000030: 396b 813b d05a c63d f67f f7bd 4227 1f3d
00000040: ec5c ffbd 22a7 50be 62d6 15be be9e 08bd
00000050: 55f3 f23a cd41 afba da4a c53b a9df 303d
00000060: c4a7 0cbf da65 33bc 5a06 8fbd a446 52bd
00000070: 4416 c13d 0235 0dbe f718 f6bc a2a1 06be
00000080: 400f 73be 9742 d9bd 292c 06be 2a53 9abd
00000090: f33d 44bd c5a2 113e a15f a4bc 97ae 72bd
000000a0: 9a9e e13e d450 33bd d376 6dbd dc0a f5bd
000000b0: 9f0d 133e cdaa af3c 726e 86bd ae76 2e3d
000000c0: a213 b43d 88be a4be 40ad 1d3e dac0 33be
000000d0: bf2c 25bd bc90 a8bd c765 1a3c 2bb3 b23d
000000e0: 5ecb d8be 9a64 b2bd 1e08 9c3c 9219 3abe
000000f0: b829 edbd cb6b 5e3d 31a1 a9bc a2a1 8abc
00000100: f034 813c 0e5f c6bd 92e1 a1bd 4e52 b53d
00000110: 856a 72bd dd35 0bbd de57 f93a f1c5 85bc
00000120: 5378 a23e 1aad 02be bc9b 303d 7e3c 35bc
00000130: 4ddc e4bc 9b0f 55be b274 7fbd a486 3e3d
00000140: 4e45 47be 45e2 133f 90c5 703d f747 3ebe
00000150: 1fbf 563d 047d 043e 2b7e 56bc 77d3 9f3d
00000160: a2d0 3f3e 0d00 c3bd ae3e 36bd 2a2d a9bc
00000170: c36b f83d e007 12be 3e5c 113e cd9a 5bbd
0.016994268 -0.08247601 0.2937376 -0.13896753 0.14149693 0.1703651 -0.0004159391 -0.10853263
0.10046672 0.005288136 0.041333806 -0.12828891 0.0039495495 0.0968529 -0.120849535 0.0388558
-0.12468895 -0.20376256 -0.14632562 -0.033354513 0.0018535653 -0.0013371051 0.006020886 0.04318205
-0.5494349 -0.010949576 -0.06983633 -0.0513369 0.09428075 -0.13789752 -0.030041201 -0.13147596
-0.23736286 -0.10608404 -0.13102783 -0.075353935 -0.047910642 0.14222248 -0.02006513 -0.059248533
0.44066316 -0.043778256 -0.057974648 -0.11964962 0.14360665 0.021443749 -0.065640345 0.04259365
0.08792807 -0.32176614 0.15398121 -0.17554036 -0.040325876 -0.08230731 0.00942368 0.0872558
-0.42342657 -0.087105945 0.01904684 -0.18173817 -0.11580223 0.054302018 -0.020706745 -0.016922776
0.015772313 -0.09686099 -0.07904352 0.08853589 -0.059183616 -0.033986915 0.0019023379 -0.016329737
0.31732425 -0.12761346 0.04311727 -0.011061786 -0.027937079 -0.20806734 -0.06236715 0.046515122
-0.19460031 0.57767135 0.05878216 -0.1858214 0.05242836 0.12938315 -0.013091604 0.078040056
0.18731931 -0.09521494 -0.04449337 -0.020651419 0.12129929 -0.14260817 0.14195344 -0.053614426

fc.4.bias f4 [6]
00000000: bb64 2a40 5c28 2940 034b 2940 6374 2840
00000010: 9b56 2a40 bb5a 3340
2.662398 2.6430883 2.6452034 2.6321037 2.661536 2.8024127
