test/model_dqn.pt (torch, 243713 bytes, 12 tensors)

features.0.weight f4 [32, 13, 2, 2]
-0.07668124 -0.22766496 0.03391724 -0.24264424 0.00040986642 -0.04377775 -0.18167472 -0.13663626
-0.012728861 0.019155748 -0.092815556 -0.1135979 -0.1061289 0.09405733 -0.1727528 0.11241466
0.01548319 -0.03192332 -0.16571292 -0.115085155 0.0029672459 -0.033768367 0.0638489 -0.04185562
0.050719008 -0.07023493 0.12666562 -0.12625575 0.035262145 -0.16765504 -0.077729836 -0.04458263
0.009702368 0.11807039 -0.05888052 0.08746868 -0.0808662 -0.13241987 -0.06997698 -0.17648204
-0.081012964 -0.07270249 -0.047558285 -0.025386065 0.024655934 0.04022857 -0.13649394 -0.12869143
-0.12644653 -0.085800014 0.013705806 -0.09503679 0.011152696 -0.055611614 -0.13946834 -0.18246529
-0.036865495 -0.19460696 -0.13816425 -0.032362696 -0.045717333 0.05146268 0.090869434 0.007997121
-0.016503418 0.058087025 -0.16447051 -0.10298953 -0.0043487865 -0.10802805 -0.059577294 -0.10047046
-0.12934835 0.065708 0.0955886 0.11908149 0.048851423 -0.04712078 -0.04423787 0.07188848
0.05156686 -0.050996747 0.019944586 -0.015179327 -0.13476194 -0.109212786 0.027564544 0.019540226
0.08458341 0.01681436 0.06072142 0.055510458 -0.19240348 -0.15118492 -0.1843043 -0.097697295
-0.088670745 -0.12487196 -0.071090445 -0.1280642 -0.12244262 -0.12337534 -0.1272485 -0.18254212
0.036364615 0.038216334 -0.11207775 0.04011027 -0.10468674 -0.18862572 -0.17774762 -0.10747537
-0.009367372 -0.0723097 0.045932982 0.021064483 0.017396968 -0.1272683 -0.14419809 0.07447301
-0.10260972 -0.0098679755 -0.25459287 -0.13782375 0.023203872 0.023132142 -0.08276444 0.021187559
-0.12064721 0.043799262 0.055081096 0.09969071 -0.0099842185 0.075279206 0.0495928 -0.06444196
-0.11598734 0.12587091 0.10568219 0.1263316 0.04525319 -0.123558976 0.03175932 -0.13135037
-0.09772347 -0.09856248 -0.12079581 -0.08595649 0.033912666 -0.089524314 -0.017597534 -0.01671153
-0.055460297 -0.21899368 -0.0046547633 -0.10220517 -0.041665234 -0.12575407 -0.027315663 -0.097165
-0.05304479 -0.061130624 -0.040709067 0.0204647 -0.061741468 -0.20571639 -0.010713993 0.0026230316
0.086533524 -0.19883387 -0.05475131 -0.07508994 -0.115157574 -0.06717726 0.028500209 0.05487509
-0.05476927 0.11036246 -0.09659432 -0.12824114 -0.10519697 -0.049237482 -0.036809877 0.03761851
-0.03767093 0.07751363 -0.22773077 -0.063388884 0.057645526 0.06763975 0.029234823 0.0035238233
0.09760279 -0.18794665 0.08923217 -0.18752688 -0.09540055 -0.07231084 -0.14191107 -0.19057426
-0.13339213 -0.004239813 -0.039418783 -0.1072077 -0.035472307 -0.012381566 -0.1637933 -0.16247275
-0.17223755 0.15423822 -0.07387512 0.15231405 0.027766008 -0.01938836 -0.1564344 -0.08026725
-0.04034632 -0.06372067 -0.03206764 -0.18921475 0.17289203 0.09317185 0.15372436 0.037632883
0.026595939 -0.11488673 -0.02468173 -0.2023133 -0.047552705 0.0350755 -0.13801983 0.067075096
-0.1658717 -0.15447165 -0.0045779906 -0.062573746 -0.07860089 -0.0057960073 -0.12738034 -0.02142097
-0.03405507 0.08338355 -0.01896624 -0.03359497 -0.20440608 -0.15286174 0.12359904 -0.114510424
-0.050168175 -0.05700046 -0.1610909 -0.042562082 -0.10182524 0.11594993 0.09300773 -0.036951218
00000000: 0e0b 9dbd 0121 69be ceec 0a3d bb77 78be
00000010: 57e3 d639 4c50 33bd f008 3abe 60ea 0bbe
00000020: b68c 50bc 84ec 9c3c 1516 bebd 04a6 e8bd
00000030: 1c5a d9bd 21a1 c03d 1ce6 30be a839 e63d
00000040: 35ad 7d3c 07c2 02bd a6b0 29be c4b1 ebbd
00000050: 2076 423b b350 0abd 36c3 823d cc70 2bbd
00000060: bcbe 4f3d 55d7 8fbd a2b4 013e 3049 01be
00000070: 0a6f 103d c3ad 2bbe d230 9fbd 479c 36bd
00000080: aef6 1e3c e3ce f13d b32c 71bd c822 b33d
00000090: 2e9d a5bd 1399 07be 1750 8fbd b5b7 34be
000000a0: 20ea a5bd 0be5 94bd 7acc 42bd 70f6 cfbc
000000b0: 3efb c93c b7c6 243d 11c5 0bbe b0c7 03be
000000c0: 337b 01be ebb7 afbd 518e 603c a6a2 c2bd
000000d0: ccb9 363c 01c9 63bd cad0 0ebe 2ed8 3abe
000000e0: 4600 17bd 0c47 47be ee7a 0dbe bf8e 04bd
000000f0: 1942 3bbd 88ca 523d c119 ba3d 5b06 033c
00000100: 2d32 87bc a9ec 6d3d f56a 28be 2dec d2bd
00000110: 4480 8ebb cf3d ddbd 5207 74bd 75c3 cdbd
00000120: e573 04be ea91 863d f5c3 c33d ffe0 f33d
00000130: 6e18 483d b801 41bd c532 35bd 443a 933d
00000140: c637 533d f7e1 50bd d462 a33c b6b2 78bc
00000150: 09ff 09be f4aa dfbd 0acf e13c d312 a03c
00000160: 113a ad3d 45be 893c 06b7 783d ef5e 633d
00000170: 6b05 45be 38d0 1abe 44ba 3cbe 8515 c8bd
00000180: 0299 b5bd dfbc ffbd de97 91bd 4323 03be
00000190: 32c3 fabd 36ac fcbd 6e4d 02be 52ec 3abe
000001a0: 10f3 143d bb88 1c3d 0589 e5bd ab4a 243d
000001b0: 0066 d6bd 1a27 41be 7903 36be 0c1c dcbd
000001c0: 9b79 19bc 1c17 94bd 3924 3c3d 6c8f ac3c
000001d0: 1684 8e3c 9f52 02be aaa8 13be 4e85 983d
000001e0: 0b25 d2bd 4aad 21bc ff59 82be ab21 0dbe
000001f0: 0c16 be3c 9e7f bd3c 6780 a9bd 8891 ad3c
00000200: e215 f7bd db66 333d b79c 613d a52a cc3d
00000210: d994 23bc fc2b 9a3d d221 4b3d 25fa 83bd
00000220: c58a edbd 4ee4 003e e76f d83d 125d 013e
00000230: 695b 393d 7d0c fdbd 1016 023d b680 06be
00000240: 3e23 c8bd 20db c9bd cb63 f7bd f509 b0bd
00000250: 02e8 0a3d 8658 b7bd b428 90bc 9ee6 88bc
00000260: 562a 63bd e13f 60be fc86 98bb f250 d1bd
00000270: 2aa9 2abd adc5 00be 19c5 dfbc 72fe c6bd
00000280: 7e45 59bd 1b64 7abd 8dbe 26bd 96a5 a73c
00000290: 9fe4 7cbd 51a7 52be be89 2fbc 2be7 2b3b
000002a0: 7d38 b13d 1b9b 4bbe e942 60bd c1c8 99bd
000002b0: bcd7 ebbd 3b94 89bd 4579 e93c b4c4 603d
000002c0: be55 60bd b705 e23d 3ed3 c5bd a551 03be
000002d0: 8271 d7bd 3ead 49bd f4c5 16bd de15 1a3d
000002e0: d54c 1abd 77bf 9e3d 4132 69be 08d2 81bd
000002f0: b71d 6c3d b686 8a3d de7d ef3c f2ef 663b
00000300: f9e3 c73d 1675 40be 5bbf b63d 0c07 40be
00000310: 5d61 c3bd b517 94bd 2351 11be e625 43be
00000320: f297 08be 21ee 8abb 9775 21bd b68f dbbd
00000330: 694b 11bd 0ddc 4abc 6eb9 27be 425f 26be
00000340: 0a5f 30be a0f0 1d3e d74b 97bd 37f8 1b3e
00000350: 8a75 e33c 57d4 9ebc 5730 20be 2863 a4bd
00000360: 2f42 25bd fc7f 82bd 5c59 03bd 83c1 41be
00000370: 9c0a 313e e2d0 be3d eb69 1d3e f024 1a3d
00000380: badf d93c bc49 ebbd 5731 cabc 382b 4fbe
00000390: a0c6 42bd 54ab 0f3d 1255 0dbe ab5e 893d
000003a0: 45da 29be d12d 1ebe f802 96bb aa26 80bd
000003b0: 81f9 a0bd 6fec bdbb fe6f 02be 087b afbc
000003c0: 547d 0bbd ffc4 aa3d 175f 9bbc e19a 09bd
000003d0: d44f 51be ca87 1cbe 7e21 fd3d 7184 eabd
000003e0: 257d 4dbd 5079 69bd 03f5 24be 9455 2ebd
000003f0: c089 d0bd 2877 ed3d d67a be3d 295a 17bd

features.0.bias f4 [32]
-0.1975022 -0.065360606 -0.07446421 -0.15896009 -0.01903649 -0.01684237 -0.072645895 0.0022414087
0.004290155 0.031094437 -0.06536269 0.06561564 -0.11974272 -0.20078397 -0.11791683 0.021484949
0.01990109 -0.023953065 -0.1608941 -0.0816253 0.023106426 -0.14475311 -0.113968305 -0.12768844
-0.1605332 -0.1194283 -0.09829744 -0.021426367 0.04290909 -0.13807589 -0.0065995078 -0.090594515
00000000: 043e 4abe c8db 85bd b180 98bd 6fc6 22be
00000010: 6af2 9bbc 03f9 89bc 5fc7 94bd 99e4 123b
00000020: 6e94 8c3b c3b9 fe3c e0dc 85bd 7e61 863d
00000030: ac3b f5bd 509a 4dbe 617e f1bd 3401 b03c
00000040: 9c07 a33c 3839 c4bc 6cc1 24be 2a2b a7bd
00000050: b049 bd3c 293a 14be 3768 e9bd c2c0 02be
00000060: d162 24be d396 f4bd 2b50 c9bd 5986 afbc
00000070: 71c1 2f3d c463 0dbe af40 d8bb 9e89 b9bd

features.2.weight f4 [64, 32, 3, 3]
0.015951544 0.0048311837 -0.0958606 -0.07970957 -0.09755832 -0.001992041 -0.11759955 -0.08776912
-0.05398258 -0.044196226 -0.002922784 -0.115323074 -0.046770148 -0.0338923 -0.0012113851 -0.052977618
-0.07006081 -0.10819207 -0.10482408 -0.020111341 -0.10127741 -0.06602143 -0.07407427 -0.023132136
-0.089014456 -0.08724858 -0.0741155 -0.07734181 -0.09806085 -0.0026226589 -0.059858996 -0.023170846
-0.02619027 -0.077786826 -0.11210855 -0.09225479 -0.009805947 -0.08281806 -0.053204123 -0.036465857
-0.094032526 -0.10773737 -0.0496657 -0.0615065 -0.07603613 -0.016679147 -0.10305778 -0.046530567
-0.06274826 -0.08397605 -0.03565085 -0.025907096 -0.035111915 -0.032456525 -0.0528237 -0.11057694
-0.0806942 -0.11272442 -0.07711664 -0.033450484 -0.02289408 -0.06180184 -0.11293672 -0.040633716
-0.048105504 -0.08596052 -0.0044647274 -0.022194976 -0.08734443 -0.031562872 -0.007828217 -0.112059705
-0.001094268 -0.060428917 -0.09843982 -0.036318023 -0.009351251 -0.033480562 -0.026843397 -0.017591504
-0.00892948 -0.09218667 -0.033620115 -0.03228974 -0.06568624 -0.0011166716 -0.06772266 -0.05936333
-0.06663334 -0.099356614 -0.0745036 -0.10957482 -0.04977617 -0.009667412 -0.06092898 -0.021370322
-0.0256899 -0.11446371 -0.03991092 -0.052449957 -0.036583588 -0.088536605 -0.037922576 -0.073670186
-0.07804031 -0.036551658 -0.024543595 -0.0076283035 -0.05771042 -0.07740646 -0.047394175 -0.10499079
-0.040314663 -0.086001955 -0.051350094 -0.028629316 -0.08555784 -0.10235976 -0.02593996 -0.02738992
-0.10766178 -0.0062308996 -0.023557669 -0.09624817 -0.093011834 -0.05672846 -0.0893105 0.048012484
-0.10829267 -0.09132428 -0.061615158 -0.11157 -0.062107008 -0.031110914 -0.054717187 -0.016181132
-0.014251765 -0.108500354 -0.06443916 -0.03421916 -0.0075579337 -0.016126879 -0.08905811 -0.0324422
-0.080123074 -0.029124018 -0.042418614 -0.0074809487 -0.075895496 -0.053188726 -0.07420247 -0.06774878
-0.022753278 -0.109878205 -0.011685516 -0.058419786 -0.06904235 -0.038456332 -0.069823496 -0.057627972
-0.092786275 -0.014360699 -0.09927756 -0.054494943 -0.08883335 -0.051930904 -0.054453477 -0.05099093
-0.0075626248 -0.00079428486 -0.07543319 -0.1094355 -0.10548935 -0.07085891 -0.091785036 -0.055674046
-0.1152484 -0.070193894 -0.095744714 -0.049399592 -0.042399436 -0.0819728 -0.04479031 -0.111595355
-0.1041924 -0.09975084 -0.09918706 -0.004125198 -0.11564015 0.06536853 -0.082053564 -0.090642124
-0.10173702 -0.088623665 -0.030105842 -0.027750606 -0.057833135 -0.095837735 -0.041551378 -0.05695197
-0.0660201 -0.040424947 -0.11162912 -0.04102664 -0.05566724 -0.0766679 -0.025059309 -0.06798446
-0.06739621 -0.09907699 -0.032480244 -0.044245496 -0.043108128 -0.07185434 -0.014322951 -0.08194546
0.0037184472 -0.061907608 -0.0032558625 0.016150625 -0.05185857 -0.09912417 -0.071256384 -0.11535501
-0.07570436 -0.096818365 -0.018194139 -0.06513132 -0.029179053 -0.0730263 -0.025366072 -0.08729771
-0.102919556 -0.10506685 -0.074577704 -0.1125788 -0.042424683 -0.0640193 -0.09991747 -0.021134038
-0.04540017 -0.011479042 -0.07649219 -0.05856318 -0.069136985 -0.08232453 -0.07647978 -0.028682787
-0.0042881505 -0.10528756 -0.057532493 -0.06801968 -0.038058512 -0.11082319 -0.08579656 -0.10169341
00000000: d0ac 823c e84e 9e3b 9052 c4bd c53e a3bd
00000010: a8cc c7bd e78c 02bb 08d8 f0bd 4cc0 b3bd
00000020: d61c 5dbd 1a07 35bd 2e8c 3fbb 812e ecbd
00000030: 0e92 3fbd a7d2 0abd 57c7 9eba 0fff 58bd
00000040: 0b7c 8fbd ce93 ddbd 02ae d6bd 8ac0 a4bc
00000050: 886a cfbd 3e36 87bd 40b4 97bd 9b7f bdbc
00000060: 364d b6bd 62af b2bd dec9 97bd 6265 9ebd
00000070: 20d4 c8bd eae0 2bbb b52e 75bd c9d0 bdbc
00000080: fa8c d6bc b34e 9fbd 2b99 e5bd 14f0 bcbd
00000090: 1fa9 20bc 849c a9bd 91ec 59bd 395d 15bd
000000a0: 2094 c0bd 69a5 dcbd 436e 4bbd 3dee 7bbd
000000b0: d5b8 9bbd b5a2 88bc f50f d3bd d696 3ebd
000000c0: 2982 80bd a3fb abbd a006 12bd 1e3b d4bc
000000d0: 83d1 0fbd 22f1 04bd aa5d 58bd 2a76 e2bd
000000e0: 0043 a5bd 10dc e6bd 54ef 9dbd 6003 09bd
000000f0: 5e8c bbbc ed23 7dbd 5e4b e7bd 8a6f 26bd
00000100: 470a 45bd 120c b0bd d94c 92bb 3dd2 b5bc
00000110: a3e1 b2bd 1248 01bd ec41 00bc 8f7f e5bd
00000120: 8b6d 8fba 5084 77bd d19a c9bd 35c2 14bd
00000130: fd35 19bc ea22 09bd afe6 dbbc 0f1c 90bc
00000140: f44c 12bc 5dcc bcbd 3fb5 09bd 3f42 04bd
00000150: 8286 86bd 485d 92ba 2eb2 8abd f726 73bd
00000160: 1077 88bd 7b7b cbbd 5895 98bd c368 e0bd
00000170: 19e2 4bbd 1164 1ebc ab90 79bd d010 afbc
00000180: a073 d2bc f36b eabd a279 23bd c4d5 56bd
00000190: acd8 15bd ae52 b5bd b454 1bbd 65e0 96bd
000001a0: 99d3 9fbd 31b7 15bd a60f c9bc d9f6 f9bb
000001b0: c361 6cbd 4787 9ebd 6520 42bd 6905 d7bd
000001c0: fd20 25bd cb21 b0bd 7a54 52bd 0788 eabc
000001d0: f338 afbd fea1 d1bd 0a80 d4bc d360 e0bc
000001e0: c87d dcbd 932c ccbb 03fc c0bc c31d c5bd
000001f0: fd7c bebd 1a5c 68bd 6ce8 b6bd bda8 443d
00000200: 8cc8 ddbd 3908 bbbd 2d60 7cbd d07e e4bd
00000210: eb63 7ebd 51dc febc 211f 60bd 4b8e 84bc
00000220: 3c80 69bc 6f35 debd aef8 83bd 6429 0cbd
00000230: 8ba8 f7bb 841c 84bc 1964 b6bd 1de2 04bd
00000240: 9117 a4bd 7e95 eebc 24bf 2dbd bf22 f5bb
00000250: 196f 9bbd 6cdc 59bd 77f7 97bd dfbf 8abd
00000260: 1565 babc d307 e1bd 9b74 3fbc 9649 6fbd
00000270: 1366 8dbd 6384 1dbd 9fff 8ebd 4f0b 6cbd
00000280: bb06 bebd 2349 6bbc 0952 cbbd 1736 5fbd
00000290: 42ee b5bd 80b5 54bd 9c0a 5fbd dedb 50bd
000002a0: e5cf f7bb 8e37 50ba b77c 9abd b81f e0bd
000002b0: cd0a d8bd 7a1e 91bd cbf9 bbbd 780a 64bd
000002c0: 5a07 ecbd d1c1 8fbd ce15 c4bd 3a57 4abd
000002d0: 08ab 2dbd 5be1 a7bd 0b76 37bd 1b8c e4bd
000002e0: d362 d5bd 2b4a ccbd 9622 cbbd ab2c 87bb
000002f0: bed4 ecbd f0df 853d b30b a8bd 94a2 b9bd
00000300: 805b d0bd 5380 b5bd 87a0 f6bc 3d55 e3bc
00000310: 70e2 6cbd 9346 c4bd c731 2abd 7846 69bd
00000320: 8c35 87bd a194 25bd cf9d e4bd 8d0b 28bd
00000330: 5503 64bd 0f04 9dbd 2e49 cdbc 703b 8bbd
00000340: 0607 8abd e0e8 cabd 010a 05bd c43a 35bd
00000350: 2692 30bd 5e28 93bd d0aa 6abc 05d3 a7bd
00000360: 31b1 733b d592 7dbd 4f60 55bb 514e 843c
00000370: a769 54bd 9d01 cbbd deee 91bd 3f3f ecbd
00000380: e30a 9bbd b548 c6bd e00b 95bc 9263 85bd
00000390: e908 efbc d08e 95bd 82cc cfbc 24c9 b2bd
000003a0: 7dc7 d2bd 4a2d d7bd 32bc 98bd b78f e6bd
000003b0: 81c5 2dbd 8d1c 83bd 88a1 ccbd 4a21 adbc
000003c0: 87f5 39bd 9712 3cbc f0a7 9cbd f2df 6fbd
000003d0: b197 8dbd c399 a8bd 6ea1 9cbd 2af8 eabc
000003e0: 9d83 8cbb 01a1 d7bd 31a7 6bbd e74d 8bbd
000003f0: 3ee3 1bbd 45f7 e2bd 1bb6 afbd a244 d0bd

features.2.bias f4 [64]
-0.048022225 -0.04120451 -0.020513589 -0.013577415 -0.021178842 -0.056570746 -0.107948534 -0.020577341
-0.024835432 -0.038240563 -0.037692625 -0.044537686 -0.024983678 -0.05515487 -0.02569893 -0.047566745
-0.026251802 -7.0113725e-05 -0.00873225 -0.017783357 -0.0963904 -0.11156135 -0.005945829 -0.0030929672
-0.09900919 -0.0642329 -0.00021980154 -0.08857517 -0.10578 -0.027023898 -0.09745837 -0.042189423
-0.10733374 -0.06773545 -0.013026054 -0.09499859 -0.00637583 -0.05447682 -0.036645196 -0.089725144
-0.06293381 -0.09652221 -0.015346109 -0.0405567 -0.0010911312 -0.050916463 -0.10524071 -0.012246437
-0.021680688 -0.106907874 -0.0354609 -0.07713766 -0.009806119 -0.07646117 -0.10181134 -0.079000734
-0.004606319 -0.079820305 -0.019352756 -0.03517093 -0.05732669 -0.024955926 -0.14170116 -0.088678524
00000000: f4b2 44bd 0fc6 28bd 1d0c a8bc ce73 5ebc
00000010: 407f adbc bab6 67bd 1f14 ddbd d091 a8bc
00000020: ad73 cbbc 23a2 1cbd 9563 1abd 266d 36bd
00000030: 92aa ccbc 13ea 61bd 9086 d2bc 59d5 42bd
00000040: 050e d7bc 050a 93b8 b611 0fbc 67ae 91bc
00000050: 5468 c5bd 477a e4bd 3bd5 c2bb 61b3 4abb
00000060: 55c5 cabd 8a8c 83bd 877a 66b9 e666 b5bd
00000070: 2fa3 d8bd 3961 ddbc 4198 c7bd d1ce 2cbd
00000080: cbd1 dbbd e2b8 8abd 3b6b 55bc 9f8e c2bd
00000090: 57ec d0bb 1623 5fbd 4619 16bd d1c1 b7bd
000000a0: 71e3 80bd 70ad c5bd 3f6e 7bbc c81e 26bd
000000b0: 4a04 8fba c88d 50bd 7188 d7bd 48a5 48bc
000000c0: b39b b1bc 84f2 dabd 733f 11bd 59fa 9dbd
000000d0: d8a9 20bc ad97 9cbd 7782 d0bd 23cb a1bd
000000e0: 9bf0 96bb d478 a3bd ac89 9ebc 650f 10bd
000000f0: 64cf 6abd 5f70 ccbc 1c1a 11be 169d b5bd

features.4.weight f4 [64, 64, 3, 3]
-0.043532327 -0.067464046 -0.08383473 -0.047243234 -0.051892646 -0.06037202 -0.06253935 -0.03325003
-0.08018368 -0.054046545 -0.08148318 -0.057836242 -0.10037261 -0.078487195 -0.06360521 -0.02644839
-0.09270651 -0.067175336 -0.06682784 -0.095033705 -0.019781856 -0.050173476 -0.02898329 -0.026851434
-0.062397312 -0.08044043 -0.09216149 -0.014817064 -0.051211584 -0.004542429 -0.053848486 -0.024995813
-0.041216042 -0.01168125 -0.05988915 -0.054093502 -0.04300082 -0.05308625 -0.07398984 -0.046598073
-0.087286904 -0.02904526 -0.04056216 -0.037082627 -0.05336886 -0.07557012 -0.086728625 -0.018843744
-0.0404344 -0.09156593 -0.030616121 -0.06619795 -0.07084781 -0.06656897 -0.070122324 -0.02004159
-0.0941732 -0.04046433 -0.058321953 -0.07228359 -0.019143188 -0.09319031 -0.034015913 0.027011236
-0.04300841 -0.030093648 -0.035700195 0.0119571015 -0.0027644827 0.026684659 -0.010077514 0.027382065
-0.08537238 -0.05430354 -0.032352496 -0.07538667 -0.034821454 -0.025421692 -0.06204068 -0.057873677
-0.0901843 0.013846638 0.053782165 0.02708942 0.009308097 0.0068377815 -0.0052490793 0.04907477
0.010981234 0.012575753 -0.031460777 -0.022374973 -0.045517404 0.023262274 0.0023449222 -0.01852322
0.007040738 0.028563555 -0.009240038 0.07602877 -0.00054424803 0.0685779 0.08277314 0.04524746
0.037986804 0.027495563 0.07804935 0.0002875905 0.03652025 0.036002982 0.0089739645 0.004497573
0.042244263 -0.0087200245 0.034541428 0.045668468 0.012489192 -0.097420625 -0.04548958 -0.034098502
-0.100812875 -0.08632305 -0.0534335 -0.07029329 -0.070340164 -0.020520309 -0.09926368 -0.055385828
-0.07186656 -0.07527079 -0.021605074 -0.06290421 -0.03735923 -0.09191162 -0.022437239 0.09065588
0.025273563 0.09271272 0.05180282 0.04078576 0.03333202 0.025693862 0.0728478 0.018294763
-0.03919469 0.040127866 -0.034105916 -0.037107527 0.0042872573 0.0060627083 0.0069194115 -0.017600918
-0.0020632187 0.07832837 0.03225042 0.039987996 0.024683561 0.057719495 0.026365628 0.06782146
0.021189796 0.0062413216 -0.10004068 -0.058023993 -0.021097261 -0.05734537 -0.018872665 -0.044319823
-0.028129023 -0.045378923 -0.080233894 -0.08433744 -0.056306403 -0.061321422 -0.042365182 -0.07871612
-0.09984019 -0.024027761 -0.04384302 -0.019120514 0.06089358 0.014072272 0.014520706 0.010999124
0.009787647 0.06158573 0.07988395 0.04971416 0.017872283 -0.058203734 -0.024195287 -0.10068671
-0.024198428 -0.035778016 -0.10089105 -0.034338623 -0.08364754 -0.05971579 0.047885474 0.041315414
0.08537935 0.09733569 0.046875592 0.09831878 0.10388396 0.032443233 0.080435105 -0.0075919097
-0.008716705 0.027925648 -0.0053591994 0.024400199 -0.005744805 0.020646492 -0.026081339 -0.026249776
-0.059563316 -0.019146197 -0.07759548 -0.084215276 -0.0282157 -0.09539429 -0.025847446 -0.08285272
-0.09098485 0.008422772 0.005960148 0.030491594 0.061526217 -0.002097172 0.042020567 0.049222954
0.058101155 0.01700801 0.011537391 0.04569722 0.044576 0.02030549 0.060614027 0.040195167
0.036636766 0.0553471 0.064419426 -0.056863338 -0.09511174 -0.098565 -0.051983465 -0.023830423
-0.057306353 -0.06528155 -0.073426306 -0.054974683 0.058895804 0.014240547 0.05798594 -0.0017109087
00000000: f44e 32bd 972a 8abd 8bb1 abbd 1f82 41bd
00000010: 628d 54bd a748 77bd a114 80bd 2f31 08bd
00000020: 5737 a4bd e95f 5dbd a7e0 a6bd b2e5 6cbd
00000030: 2890 cdbd e5bd a0bd 7343 82bd 4baa d8bc
00000040: e9dc bdbd 3993 89bd 09dd 88bd 08a1 c2bd
00000050: 8f0d a2bc b482 4dbd 5d6e edbc 8af7 dbbc
00000060: 5394 7fbd f4bd a4bd 2abf bcbd 45c3 72bc
00000070: 3dc3 51bd a8d8 94bb 3b90 5cbd 05c4 ccbc
00000080: 27d2 28bd b762 3fbc 534e 75bd 2691 5dbd
00000090: a121 30bd f870 59bd fc87 97bd 9fdd 3ebd
000000a0: 7ac3 b2bd 53f0 edbc 8224 26bd f4e3 17bd
000000b0: 4e99 5abd 82c4 9abd c79e b1bd 325e 9abc
000000c0: 8b9e 25bd eb86 bbbd a9ce fabc ca92 87bd
000000d0: a818 91bd 5055 88bd 4b9c 8fbd 432e a4bc
000000e0: e1dd c0bd edbd 25bd 00e3 6ebd 6b09 94bd
000000f0: 2dd2 9cbc 90da bebd 4554 0bbd ab46 dd3c
00000100: 9629 30bd f486 f6bc 5e3a 12bd b8e7 433c
00000110: 532c 35bb c999 da3c 281c 25bc 5a50 e03c
00000120: b7d7 aebd 646d 5ebd 0d84 04bd 5464 9abd
00000130: f1a0 0ebd 2741 d0bc 5e1e 7ebd f30c 6dbd
00000140: 8cb2 b8bd 02dd 623c b04a 5c3d a2ea dd3c
00000150: fd80 183c 780f e03b 7800 acbb a002 493d
00000160: a2ea 333c 880a 4e3c 04dd 00bd b84b b7bc
00000170: 7570 3abd 8690 be3c 44ad 193b 02be 97bc
00000180: feb5 e63b 1efe e93c 8763 17bc f9b4 9b3d
00000190: deab 0eba 9272 8c3d f784 a93d 6755 393d
000001a0: 0d98 1b3d 603e e13c 56d8 9f3d bec7 9639
000001b0: 4296 153d dd77 133d 8907 133c 6060 933b
000001c0: 5208 2d3d 6fde 0ebc 507b 0d3d dc0e 3b3d
000001d0: 789f 4c3c 7784 c7bd 4853 3abd dfaa 0bbd
000001e0: fb76 cebd 24ca b0bd 16dd 5abd eef5 8fbd
000001f0: 810e 90bd 351a a8bc c24a cbbd 40dc 62bd
00000200: c62e 93bd 9227 9abd 20fd b0bc ecd3 80bd
00000210: fe05 19bd 293c bcbd 4dce b7bc caa9 b93d
00000220: 810a cf3c 2be0 bd3d 322f 543d f80e 273d
00000230: 2887 083d ef7b d23c 3a31 953d e6de 953c
00000240: 9c8a 20bd 1e5d 243d a5b2 0bbd 10fe 17bd
00000250: 1f7c 8c3b afa9 c63b 3bbc e23b cd2f 90bc
00000260: 1137 07bb a06a a03d 0419 043d 74ca 233d
00000270: 2e35 ca3c 476b 6c3d bbfc d73c fae5 8a3d
00000280: 3996 ad3c 0084 cc3b 21e2 ccbd 91aa 6dbd
00000290: 2ad4 acbc fbe2 6abd d99a 9abc b488 35bd
000002a0: d66e e6bc 40df 39bd ab51 a4bd 1cb9 acbd
000002b0: 8ba1 66bd 2c2c 7bbd 1d87 2dbd eb35 a1bd
000002c0: 0379 ccbd ded5 c4bc bd94 33bd a0a2 9cbc
000002d0: 8c6b 793d 638f 663c 41e8 6d3c ab35 343c
000002e0: 5e5c 203c 5241 7c3d 329a a33d 13a1 4b3d
000002f0: e568 923c 0a67 6ebd 3235 c6bc d534 cebd
00000300: c83b c6bc f88b 12bd f89f cebd a8a6 0cbd
00000310: 674f abbd 8b98 74bd 8f23 443d 5a3a 293d
00000320: 5edb ae3d ef57 c73d 9f00 403d 5b5b c93d
00000330: 1dc1 d43d 32e3 043d 29bb a43d 8ec5 f8bb
00000340: 83d0 0ebc 54c4 e43c 399c afbb ede2 c73c
00000350: eb3e bcbb d522 a93c 88a8 d5bc c509 d7bc
00000360: aaf8 73bd 7cd8 9cbc 61ea 9ebd 0f79 acbd
00000370: 9d24 e7bc 155e c3bd 06be d3bc b0ae a9bd
00000380: 4456 babd abff 093c 584d c33b 82c9 f93c
00000390: ea02 7c3d b570 09bb c21d 2c3d 029e 493d
000003a0: 7afb 6d3d 6254 8b3c 5307 3d3c 022d 3b3d
000003b0: 5395 363d b357 a63c 6a46 783d b0a3 243d
000003c0: 6f10 163d a4b3 623d 55ee 833d 88e9 68bd
000003d0: f2c9 c2bd 72dc c9bd 9dec 54bd 0538 c3bc
000003e0: 11ba 6abd 55b2 85bd 8860 96bd 222d 61bd
000003f0: ba3c 713d 2f51 693c aa82 6d3d 9240 e0ba

features.4.bias f4 [64]
-0.32500958 -0.25182495 -0.23743747 -0.28370187 0.30127314 -0.27296478 -0.31130657 0.2808887
-0.28843844 0.053204667 0.27108747 0.31538576 0.09868103 0.005681939 0.1897454 -0.26657286
0.2590168 0.24793313 -0.2635574 -0.24903342 0.20767114 0.3067268 0.25455377 0.27060845
-0.26576093 0.28743917 0.2827184 -0.25971997 0.27599266 0.31158784 0.2347148 0.24438515
0.28069904 0.24531235 0.19480862 -0.32033676 0.24955828 -0.2351516 0.19274656 0.1198036
-0.30523148 0.26011735 0.25821128 0.2659182 0.3110004 0.27044225 0.23026925 0.26177105
-0.2619102 -0.2763176 0.28348976 -0.26090574 -0.2983302 0.070851795 -0.2503454 0.0617904
0.32336274 0.28147438 0.30092043 0.2836501 0.26636067 0.24834634 0.30111498 0.04359772
00000000: a867 a6be 33ef 80be cf22 73be 5f41 91be
00000010: 7940 9a3e 0ac2 8bbe 9363 9fbe a5d0 8f3e
00000020: 34ae 93be 23ed 593d facb 8a3e 3e7a a13e
00000030: 4819 ca3d 8f2f ba3b 9e4c 423e 3d7c 88be
00000040: da9d 843e 2fe2 7d3e fff0 86be 9e02 7fbe
00000050: bea7 543e 4c0b 9d3e df54 823e 318d 8a3e
00000060: d111 88be 3a2b 933e 77c0 903e 04fa 84be
00000070: e94e 8d3e 7188 9f3e 1459 703e 1a40 7a3e
00000080: c9b7 8f3e 2933 7b3e e97b 473e 2e03 a4be
00000090: 358c 7f3e 95cb 70be 5b5f 453e 975b f53d
000000a0: 4d47 9cbe 1a2e 853e 4534 843e 6e26 883e
000000b0: 723b 9f3e 6877 8a3e b4cb 6b3e db06 863e
000000c0: 1819 86be 8079 8dbe 9225 913e 7095 85be
000000d0: bcbe 98be bf1a 913d 462d 80be ee17 7d3d
000000e0: cd8f a53e 691d 903e 3e12 9a3e 963a 913e
000000f0: 6d60 883e 814e 7e3e be2b 9a3e 8693 323d

fc.0.weight f4 [32, 71]
0.0048179636 -0.007281094 -0.084359296 -0.06755297 -0.046491005 -0.18109883 0.05678429 0.016713701
-0.056531023 0.02851092 -0.10644072 -0.14020284 -0.025515916 -0.030332817 0.035065487 -0.015378034
0.045888085 -0.041608833 -0.17932075 0.050477814 -0.013772805 0.030484637 0.09465842 0.05761025
-0.033842612 -0.16342829 0.06255431 -0.18618558 0.11343204 -0.0867405 -0.06528287 -0.0064800526
0.080833934 0.15497726 -0.12754704 -0.03818283 0.116716646 -0.13429205 0.14620776 -0.15881439
-0.018350866 -0.056009408 0.020791886 0.120527 -0.18052192 -0.16535065 0.03536389 0.18354054
-0.01840697 0.04107096 -0.12326254 0.17313609 -0.019444231 -0.08115179 -0.048508305 0.12270623
-0.16362776 -0.15438494 0.033596665 -0.062441513 0.12773766 0.030033054 0.0030979253 0.14685337
0.010806811 0.09855 0.009337746 -0.028152859 0.024824312 -0.018834634 -0.10297582 -0.04808427
0.09763964 -0.08273753 0.01928949 -0.062118113 -0.13900334 -0.023778597 0.11263396 -0.081496365
-0.015952844 0.024192212 0.0872739 -0.23010878 0.04279014 0.08704122 0.07894046 0.06589507
0.115300804 0.02236137 -0.05462232 0.26085645 -0.10188042 0.0044271555 0.09492595 0.06976459
-0.024705773 -0.011541729 -0.06502604 0.16452841 0.17484128 0.049938243 0.07898136 0.062068928
-0.08157463 0.040546253 0.041012567 -0.0035449525 -0.042723894 -0.08054026 0.061739404 0.08055063
0.004712766 0.04719039 -0.063012354 0.21340437 -0.08454166 0.025285965 0.027983494 -0.09169487
0.047727127 -0.071288705 0.00246929 -0.11984714 -0.001476379 0.023051325 -0.24324103 -0.050679643
-0.053508814 0.16164693 -0.2803722 0.03293406 0.20191038 0.12358293 -0.06540165 -0.1413598
-0.123471245 -0.12195484 -0.15499993 -0.061881613 -0.04917702 0.0321977 0.0047930167 0.072467335
-0.04644493 -0.036582384 0.07444792 0.060906984 0.09318088 -0.11466311 -0.054675348 0.024292529
0.08367892 -0.018349882 -0.092901364 0.07447789 -0.04725332 -0.10222994 -0.066131786 -0.02308597
-0.03328261 0.06578807 -0.10173069 0.11573302 -0.11811937 -0.047789358 -0.0234969 -0.042179037
-0.07150506 -0.0005493773 0.07981881 -0.104984805 0.02365108 0.10746607 -0.040311124 0.102005236
-0.09596133 -0.05217835 0.103355296 -0.054735348 0.09366401 -0.011111987 0.0071852384 -0.10300077
0.0356139 0.056629222 -0.014188724 0.07109102 0.111865126 0.0493943 -0.041346867 0.028803939
-0.10775126 0.061044767 0.07188901 -0.08531776 0.080172196 -0.08203648 -0.06916936 -0.032623038
-0.04103269 0.07459133 -0.06377526 -0.0830263 -0.011152166 -0.04971955 -0.013775473 0.11102172
-0.07761585 -0.05519514 -0.09123187 -0.03747512 -0.09971823 0.1278373 -0.094733074 -0.14253773
0.29686937 -0.45603296 0.30746838 -0.09094674 -0.20068611 0.18604864 -0.13710083 -0.20135261
-0.20316163 -0.05980403 -0.06680353 -0.19153999 0.22734888 -0.07954418 -0.10809115 0.17816639
0.15227781 -0.06778936 -0.17510886 -0.34159446 -0.16844016 0.13632888 -0.24452901 -0.23936743
0.07727289 -0.18417555 0.08944878 0.015719412 -0.13463625 -0.17658937 -0.124695964 -0.22257127
0.35207292 -0.15228239 0.19372621 -0.042219076 0.109029345 0.22978741 -0.044203177 0.00555344
00000000: 02e0 9d3b 3e96 eebb 91c4 acbd 3659 8abd
00000010: 5a6d 3ebd f971 39be a596 683d 2ceb 883c
00000020: 138d 67bd bc8f e93c 98fd d9bd 5591 0fbe
00000030: c106 d1bc 877c f8bc d4a0 0f3d 26f4 7bbc
00000040: 25f5 3b3d 066e 2abd dc9f 37be d3c1 4e3d
00000050: 55a7 61bc ebba f93c 46dc c13d baf8 6b3d
00000060: 8d9e 0abd bf59 27be 791c 803d 6fa7 3ebe
00000070: 0f4f e83d 01a5 b1bd 06b3 85bd 9f56 d4bb
00000080: 438c a53d 5cb2 1e3e b19b 02be 9965 1cbd
00000090: 2309 ef3d db83 09be 7db7 153e 3da0 22be
000000a0: 8e54 96bc 1f6a 65bd bf53 aa3c dcd6 f63d
000000b0: bdda 38be ae51 29be bad9 103d 0df2 3b3e
000000c0: 37ca 96bc 063a 283d 1271 fcbd 964a 313e
000000d0: 8249 9fbc e932 a6bd a5b0 46bd 674d fb3d
000000e0: 098e 27be 1617 1ebe a89c 093d acc2 7fbd
000000f0: a9cd 023e e107 f63c 9006 4b3b bb60 163e
00000100: 0d0f 313c 95d4 c93d 58fd 183c d3a0 e6bc
00000110: 5b5c cb3c 174b 9abc fde4 d2bd 03f4 44bd
00000120: 4bf7 c73d 4b72 a9bd fe04 9e3c 906f 7ebd
00000130: e456 0ebe 55cb c2bc a2ac e63d 91e7 a6bd
00000140: 8aaf 82bc bf2e c63c a9bc b23d a3a1 6bbe
00000150: b744 2f3d ab42 b23d 89ab a13d fff3 863d
00000160: d422 ec3d 312f b73c a7bb 5fbd fa8e 853e
00000170: afa6 d0bd ac11 913b 8968 c23d bde0 8e3d
00000180: c363 cabc 8519 3dbc 5f2c 85bd 237a 283e
00000190: 9809 333e 0b8c 4c3d fbc0 a13d fd3b 7e3d
000001a0: 9a10 a7bd d413 263d cbfc 273d 6f52 68bb
000001b0: 40ff 2ebd 4bf2 a4bd 75e2 7c3d bbf7 a43d
000001c0: 8c6d 9a3b b64a 413d 9f0c 81bd ad86 5a3e
000001d0: 2e24 adbd 8324 cf3c a43d e53c 85ca bbbd
000001e0: 857d 433d d0ff 91bd d0d3 213b 6b72 f5bd
000001f0: 0f83 c1ba 22d6 bc3c 2d14 79be 7595 4fbd
00000200: 0f2c 5bbd c686 253e f28c 8fbe dde5 063d
00000210: 98c1 4e3e 0c19 fd3d 4df1 85bd a0c0 10be
00000220: 7ede fcbd 76c3 f9bd 4db8 1ebe 9377 7dbd
00000230: d86d 49bd bce1 033d bd0e 9d3b c169 943d
00000240: 0a3d 3ebd 69d7 15bd 2778 983d 9a79 793d
00000250: 9ed5 be3d 7ed4 eabd 42f3 5fbd 2001 c73c
00000260: db5f ab3d 7e52 96bc 1243 bebd dd87 983d
00000270: b38c 41bd ee5d d1bd 1a70 87bd ca1e bdbc
00000280: 5953 08bd e5bb 863d 2e58 d0bd 6f05 ed3d
00000290: 91e8 f1bd c6be 43bd 927c c0bc edc3 2cbd
000002a0: 3f71 92bd 1604 10ba 0b78 a33d 4602 d7bd
000002b0: e9bf c13c 2c17 dc3d 471d 25bd 1fe8 d03d
000002c0: 6087 c4bd f7b8 55bd f1ab d33d 2c32 60bd
000002d0: ebd2 bf3d 0d0f 36bc 2672 eb3b 11f2 d2bd
000002e0: e1df 113d 0bf4 673d d277 68bc 2b98 913d
000002f0: 8b19 e53d ad51 4a3d 555b 29bd 3df6 eb3c
00000300: b1ac dcbd 140a 7a3d 8c3a 933d 14bb aebd
00000310: 5231 a43d be02 a8bd aaa8 8dbd bc9f 05bd
00000320: e511 28bd 57c3 983d 9a9c 82bd b109 aabd
00000330: 93b7 36bc baa6 4bbd 86b2 61bc 5b5f e33d
00000340: 0ff5 9ebd 4d14 62bd c6d7 babd 837f 19bd
00000350: 1239 ccbd c8e7 023e 6a03 c2bd 69f5 11be
00000360: 43ff 973e 277d e9be 7f6c 9d3e 4942 babd
00000370: a980 4dbe 8983 3e3e 2964 0cbe 612f 4ebe
00000380: 9a09 50be 12f5 74bd 4ad0 88bd 0f23 44be
00000390: 25ce 683e 0fe8 a2bd e55e ddbd 4071 363e
000003a0: b7ee 1b3e 26d5 8abd bd4f 33be 78e5 aebe
000003b0: 947b 2cbe cc99 0b3e d065 7abe bc1c 75be
000003c0: 4041 9e3d 8498 3cbe ec30 b73d ffc5 803c
000003d0: 16de 09be d8d3 34be 9960 ffbd b9e9 63be
000003e0: e742 b43e eaef 1bbe 2a60 463e e9ed 2cbd
000003f0: c74a df3d 644d 6b3e 640e 35bd a2f9 b53b

fc.0.bias f4 [32]
-0.08598513 -0.10276287 -0.06638675 -0.0014556152 -0.12223128 -0.023165174 -0.12636983 -0.10366041
0.040675275 -0.19197497 -0.29336995 -0.13907976 -0.15937823 -0.034384344 -0.058159534 -0.049575046
-0.20458071 -0.07740867 -0.061195206 -0.066323735 -0.17274252 -0.089782685 0.03390461 -0.06959207
-0.046535544 -0.13350251 -0.16108413 -0.14501229 0.026817411 0.006697195 -0.042873107 -0.0009739796
00000000: f918 b0bd 5775 d2bd c7f5 87bd 57ca beba
00000010: 6554 fabd e4c4 bdbc 1867 01be e94b d4bd
00000020: 1e9b 263d 1695 44be 9634 96be ed6a 0ebe
00000030: 0c34 23be 99d6 0cbd b138 6ebd 340f 4bbd
00000040: 9b7d 51be 7088 9ebd d3a7 7abd bdd4 87bd
00000050: 6ae3 30be fcdf b7bd 8fdf 0a3d 4a86 8ebd
00000060: 0e9c 3ebd e2b4 08be 3df3 24be 1a7e 14be
00000070: 30b0 db3c 2574 db3b b69b 2fbd aa52 7fba

fc.2.weight f4 [16, 32]
-0.038199406 -0.010956811 0.17520437 -0.029135462 -0.09418363 0.027724333 0.10455071 -0.086272426
0.112356044 -0.13117747 -0.16504054 -0.19674754 -0.036720213 -0.14632842 0.058409624 0.048173256
-0.0035845586 -0.06766388 0.01446012 -0.17649831 -0.1639237 0.085863665 -0.069670804 0.036506563
-0.12200817 -0.07603121 0.0063249795 0.053438034 0.05113462 0.05859033 -0.15725529 -0.0020238983
0.15272985 -0.23056078 0.039134655 -0.5129945 -0.051968567 0.0020679017 0.10612288 0.03628574
0.03695319 -0.24490266 -0.032406136 -0.09283046 0.03170189 0.02428577 -0.21866994 0.06510162
-0.16531375 -0.14685738 -0.19816084 -0.4045755 0.11423107 -0.20430927 -0.18087077 0.07278971
-0.018255739 -0.23052748 -0.18330498 0.05803528 -0.07353436 -0.17073946 -0.07486584 0.06768176
-0.0384746 -0.17256981 0.12061726 -0.20735781 -0.018209398 0.13506503 0.16775128 -0.11964534
-0.09806251 -0.38146168 -0.1210694 -0.06437731 -0.05415758 -0.19793968 0.087925576 0.117924854
-0.08915739 0.085855946 -0.23153524 -0.10549069 -0.2261031 -0.13276945 0.09005559 -0.16324665
-0.029097952 0.12491531 -0.06981663 0.10159111 -0.1471377 -0.012663643 0.022905577 -0.05762414
0.0041330825 -0.14884858 0.081508234 -0.12878183 -0.16606694 0.078946844 0.09563094 0.0269493
-0.1683608 -0.18457538 -0.14750315 0.046832282 -0.15883237 -0.03858583 0.1057572 0.12614709
-0.09504075 0.04974288 -0.10880798 0.029952805 -0.1319625 0.017792683 0.03627451 0.09189161
0.07447365 -0.02402522 -0.17205891 -0.08577349 0.13685524 -0.039971944 -0.029381137 -0.025382843
-0.05700728 0.13477598 0.1582429 -0.14235267 -0.15386887 0.10706359 -0.047392108 0.086116344
-0.22129293 -0.2528481 0.043353405 -0.022814846 0.05948465 -0.23413987 0.11243976 0.035225347
-0.16708347 -0.16743268 -0.12729532 -0.29030174 -0.14794542 -0.08578613 -0.021906912 -0.035141148
0.05655123 -0.04927647 0.098346 -0.2125928 0.01455927 -0.018012758 -0.13179715 0.10510387
0.10040812 0.059232127 0.16288689 -0.6953196 0.023702312 -0.08359163 0.00014846228 -0.1868299
0.025044741 -0.37515354 -0.16520497 -0.18585089 -0.029004492 0.04788493 0.14074971 0.04250122
-0.14858218 0.11913954 -0.029576361 -0.50321746 -0.17880788 -0.19079615 -0.14554463 -0.048312638
0.05160247 -0.0066874824 0.0119369775 -0.057674862 -0.13623513 -0.04081012 0.027894637 -0.07513265
0.22692035 0.17635068 0.013562982 -0.03211885 0.0071680904 -0.06352816 0.06635429 -0.18114649
-0.09915825 -0.29589686 -0.053969517 0.056972075 0.09152029 0.0056647537 -0.15184447 0.16971305
-0.12573934 0.007720137 0.004078123 -0.10834771 -0.2550995 0.020767476 -0.09657366 -0.008955771
-0.049539953 0.14901645 -0.040411994 -0.049831606 -0.14091066 -0.012809656 -0.2015143 -0.05477823
-0.20993344 0.01346036 -0.052291088 -0.26490492 0.0034351833 0.055668827 0.026030105 0.10234229
0.010935994 -0.27602723 -0.3229827 -0.13193965 -0.06460525 -0.1374947 -0.23426741 -0.14921856
-0.3849747 0.007879736 0.025646206 -0.18051744 0.1550174 0.03428609 -0.0073536383 0.029182585
-0.17292877 -0.009068829 0.011704236 0.07640367 0.14649747 -0.042770468 0.08299569 -0.044478282
00000000: fb76 1cbd 3284 33bc c668 333e 7ead eebc
00000010: 59e3 c0bd 241e e33c af1e d63d 99af b0bd
00000020: ed1a e63d 6353 06be 6300 29be 3078 49be
00000030: ef67 16bd 1ed7 15be ee3e 6f3d 5251 453d
00000040: eaea 6abb 5c93 8abd 24ea 6c3c f9bb 34be
00000050: 9ddb 27be 4ad9 af3d 91af 8ebd e887 153d
00000060: 6bdf f9bd 40b6 9bbd c641 cf3b d7e1 5a3d
00000070: 8972 513d 6afc 6f3d 8807 21be 61a3 04bb
00000080: 3765 1c3e 2018 6cbe a94b 203d 9c53 03bf
00000090: fedc 54bd a285 073b f456 d93d 5ba0 143d
000000a0: 3a5c 173d c3c7 7abe 4cbc 04bd e51d bebd
000000b0: d7d9 013d f3f2 c63c 03eb 5fbe 0054 853d
000000c0: 0248 29be c861 16be adea 4abe 8524 cfbe
000000d0: fbf1 e93d 7336 51be 3036 39be c512 953d
000000e0: 0f8d 95bc 650f 6cbe 4db4 3bbe 67b6 6d3d
000000f0: 2f99 96bd 53d6 2ebe 4353 99bd bc9c 8a3d
00000100: 8b97 1dbd 24b6 30be 2f06 f73d 9b55 54be
00000110: e02b 95bc 7d4e 0a3e fec6 2b3e 9e08 f5bd
00000120: ffd4 c8bd f24e c3be 3cf3 f7bd 40d8 83bd
00000130: 57d4 5dbd b3b0 4abe 5312 b43d 9682 f13d
00000140: 2698 b6bd 3ed5 af3d 9317 6dbe 810b d8bd
00000150: 9287 67be b7f4 07be 116f b83d 212a 27be
00000160: d45e eebc 99d3 ff3d 05fc 8ebd 000f d03d
00000170: 44ab 16be 2b7b 4fbc 7aa4 bb3c 4a07 6cbd
00000180: cf6e 873b c36b 18be caed a63d 62df 03be
00000190: 740d 2abe e2ae a13d 27da c33d c7c4 dc3c
000001a0: c666 2cbe 5401 3dbe 110b 17be 35d3 3f3d
000001b0: f4a4 22be 2d0c 1ebd 3b97 d83d b42c 013e
000001c0: baa4 c2bd 31bf 4b3d b8d6 debd 965f f53c
000001d0: 2d21 07be f6c1 913c 9594 143d ab31 bc3d
000001e0: a485 983d 8ad0 c4bc 3630 30be 03aa afbd
000001f0: c823 0c3e 9fb9 23bd b6b0 f0bc aeef cfbc
00000200: 7780 69bd b702 0a3e 6d0a 223e e6c4 11be
00000210: cd8f 1dbe 2844 db3d 3a1e 42bd c45d b03d
00000220: 9d9a 62be 4e75 81be 5793 313d 33e6 babc
00000230: 2da6 733d 5dc2 6fbe d146 e63d 7448 103d
00000240: ee17 2bbe 7973 2bbe b459 02be 6ea2 94be
00000250: 017f 17be a3b0 afbd 2076 b3bc 2af0 0fbd
00000260: 43a2 673d 20d6 49bd a169 c93d edb1 59be
00000270: 018a 6e3c 7e8f 93bc d5f5 06be b340 d73d
00000280: c6a2 cd3d 639d 723d d2cb 263e 7700 32bf
00000290: 5a2b c23c 1732 abbd 8aac 1b39 5650 3fbe
000002a0: a12a cd3c 2014 c0be 7e2b 29be b24f 3ebe
000002b0: d49a edbc fd22 443d b120 103e c215 2e3d
000002c0: ed25 18be 6eff f33d 204a f2bc dcd2 00bf
000002d0: 6a19 37be 1160 43be a709 15be 79e3 45bd
000002e0: 1d5d 533d ab22 dbbb 5093 433c 7a3c 6cbd
000002f0: 3981 0bbe 8328 27bd 4b83 e43c 26df 99bd
00000300: cf5d 683e 4695 343e 4537 5e3c 0e8f 03bd
00000310: 4de2 ea3b 0d1b 82bd c2e4 873d 777e 39be
00000320: 7b13 cbbd cb7f 97be 240f 5dbd 8d5b 693d
00000330: fd6e bb3d 669f b93b 1e7d 1bbe 42c9 2d3e
00000340: d0c1 00be 34f9 fc3b c6a1 853b 67e5 ddbd
00000350: 679c 82be 8e20 aa3c 69c8 c5bd 3abb 12bc
00000360: 68ea 4abd c597 183e 0c87 25bd 3a1c 4cbd
00000370: e24a 10be 97df 51bc c459 4ebe 235f 60bd
00000380: cbf8 56be d788 5c3c 2e2f 56bd 9ea1 87be
00000390: d020 613b ff04 643d 163d d53c d698 d13d
000003a0: e22c 333c 7153 8dbe fd5d a5be 301b 07be
000003b0: c24f 84bd 69cb 0cbe cce3 6fbe c0cc 18be
000003c0: 671b c5be 021a 013c fe17 d23c 90d9 38be
000003d0: e2bc 1e3e 926f 0c3d caf6 f0bb 5110 ef3c
000003e0: 3d14 31be 6d95 14bc 20c3 3f3c 8779 9c3d
000003f0: 6f03 163e 1630 2fbd a5f9 a93d dc2e 36bd

fc.2.bias f4 [16]
-0.09353678 -0.2638109 -0.1910382 -0.23246351 -0.14817657 -0.040226217 -0.54460657 -0.0095387
-0.035884947 -0.0020331389 -0.07715693 -0.046070274 -0.46540847 -0.2044699 -0.17067654 -0.28629717
00000000: 3690 bfbd 3912 87be 859f 43be ea0a 6ebe
00000010: 99bb 17be 3fc4 24bd 566b 0bbf 3548 1cbc
00000020: 18fc 12bd 693e 05bb 7404 9ebd 2fb4 3cbd
00000030: 054a eebe 8f60 51be d5c5 2ebe 8b95 92be

fc.4.weight f4 [6, 16]
-0.10824348 -0.0953065 0.22020695 0.033704955 0.08812704 0.03241016 -0.14704692 -0.0018966912
0.1961984 -0.083368696 0.33056444 -0.073636055 -0.056610066 0.17039025 0.022971801 0.118553475
-0.17897716 0.38084024 0.1420777 0.16954096 -0.34670642 0.13811922 0.14330341 -0.03114383
-0.1747495 0.020131778 0.13833836 -0.29088417 -0.15726106 -0.6483748 -0.43148705 0.13460636
0.01852655 0.343113 0.30398256 -0.1559876 0.37488434 -0.06507599 0.16725291 -0.111707285
0.046473004 0.08249959 0.4467734 0.086341694 -0.17694828 0.10922319 0.19711424 -0.021120075
0.22020102 -0.091017865 0.4494573 0.14669976 -0.15990822 0.14933762 0.0978793 -0.14860252
0.084668934 0.050133865 0.35762215 0.15141454 -0.24294204 -0.25087583 -0.20893303 0.13710293
-0.1308225 0.3140383 -0.115528606 0.0021795402 -0.25114 0.016466804 -0.046769146 0.16280088
-0.0968522 -0.086485386 0.101911336 -0.3110518 0.015209872 -0.32805592 -0.36198705 0.041870303
-0.039681904 0.2445034 -0.16679043 0.12816724 -0.4200137 0.01520379 -0.052118726 -0.03646428
-0.15580624 0.03307807 -0.15714552 -0.13849483 0.18598378 -0.44688702 -0.30740106 0.15175389
00000000: c2ae ddbd 0e30 c3bd ee7d 613e 350e 0a3d
00000010: f37b b43d 84c0 043d 7893 16be 659a f8ba
00000020: 3ce8 483e 35bd aabd be3f a93e 80ce 96bd
00000030: f5df 67bd c87a 2e3e 5c2f bc3c 2acc f23d
00000040: ca45 37be 7efd c23e d17c 113e 259c 2d3e
00000050: 8183 b1be 206f 0d3e 21be 123e 5821 ffbc
00000060: 88f1 32be 66eb a43c 92a8 0d3e c5ee 94be
00000070: 0b09 21be e4fb 25bf dfeb dcbe 40d6 093e
00000080: fec4 973c 82ac af3e 9aa3 9b3e 37bb 1fbe
00000090: d7f0 bf3e 9046 85bd 5944 2b3e cac6 e4bd
000000a0: 7a5a 3e3d 8cf5 a83d 7cbf e43e ead3 b03d
000000b0: ee31 35be 68b0 df3d 51d8 493e 0204 adbc
000000c0: 607c 613e 9367 babd 441f e63e 7638 163e
000000d0: fbbe 23be f6eb 183e f174 c83d 422b 18be
000000e0: e866 ad3d 2b59 4d3d 401a b73e 6a0c 1b3e
000000f0: ccc5 78be cc72 80be 8af2 55be b664 0c3e
00000100: 55f6 05be a1c9 a03e 439a ecbd 9ed6 0e3b
00000110: 6c95 80be 64e5 863c 0191 3fbd 46b5 263e
00000120: 725a c6bd 401f b1bd e4b6 d03d 2e42 9fbe
00000130: d432 793c f2f6 a7be 5e56 b9be 3280 2b3d
00000140: 7e89 22bd 195f 7a3e 1ccb 2abe 463e 033e
00000150: 090c d7be 5119 793c 727a 55bd 925b 15bd
00000160: ac8b 1fbe df7c 073d c1ea 20be 97d1 0dbe
00000170: 8872 3e3e 60ce e4be ac63 9dbe 5f65 1b3e

fc.4.bias f4 [6]
2.5616279 2.5164497 2.5371373 2.55373 2.5569026 2.710181
00000000: b6f1 2340 830d 2140 7560 2240 5070 2340
00000010: 4ba4 2340 9b73 2d40
