test/model_dqn.pt (torch, 732153 bytes, 36 tensors)

features.0.weight f4 [32, 14, 2, 2]
0	0x3e1bd0ce	0.15216371
1	0x3e74db39	0.23911752
2	0x3eae037e	0.3398704
3	0x3e820bd9	0.25399664
4	0x3e4d2e02	0.20037082
5	0x3e7723f2	0.24134806
6	0x3e9973d3	0.2997118
7	0x3ec00837	0.37506267
8	0xbcd28c09	-0.02570154
9	0xbe23a10d	-0.15979405
10	0xbe5eb032	-0.217469
11	0x3e64bbda	0.22337285
12	0x3e9f150a	0.3107074
13	0xbd90486e	-0.07045065
14	0x3e89c9e1	0.26911834
15	0x3e9c03e8	0.3047173
16	0xbecc3c4c	-0.39889753
17	0x3e2f9d82	0.17149928
18	0xbe25aea1	-0.16179897
19	0xbd8db8d6	-0.0692002
20	0x3deed563	0.11661794
21	0xbd5fcd71	-0.054639284
22	0xbdb1d04d	-0.08682308
23	0xbdef7acc	-0.116933435
24	0xbcc6b1f8	-0.024254784
25	0x3eb32c47	0.34994718
26	0xbe0e558a	-0.13899818
27	0x3ea511e5	0.32240215
28	0x3eb682e2	0.3564673
29	0x3e07e311	0.13270213
30	0xbe873a87	-0.2641184
31	0x3eb861be	0.3601207
32	0xbd75ee90	-0.060041964
33	0x3db4fdc3	0.08837464
34	0x3ddbc6b3	0.10731258
35	0x3cc4ec7c	0.024038546
36	0xbec3d47e	-0.38248056
37	0x3e2060ee	0.15661976
38	0xbe155d38	-0.14586341
39	0xbdd1009f	-0.102051966
40	0xbcea9341	-0.02863467
41	0xbe95b53b	-0.2923983
42	0xbe20da7a	-0.15708342
43	0x3e71b0de	0.23602626
44	0xbd584ce8	-0.05280772
45	0xbe15bcfd	-0.14622875
46	0xbe893107	-0.26795217
47	0xbe2ab628	-0.1667105
48	0xbd8e0bb6	-0.069358274
49	0x3dadf4e6	0.08493976
50	0xbc5f5564	-0.013631199
51	0x3e6941fd	0.22779079
52	0xbea9dae6	-0.3317482
53	0x3cb731e3	0.022362655
54	0xbe3ae908	-0.18252957
55	0xbdc4fa44	-0.09618047
56	0xbe4fe729	-0.20303024
57	0xbd975f72	-0.073912516
58	0xbd58b264	-0.0529045
59	0xbb4ac77f	-0.0030941663
60	0x3c31a89a	0.01084342
61	0xbe289ae5	-0.16465338
62	0xbe454fd3	-0.19268732
63	0xbe0c4665	-0.13698728
64	0xbe06a7ec	-0.13149995
65	0xbe1afd0c	-0.15135592
66	0xbe0f87cd	-0.14016648
67	0xbd395ffe	-0.04525756
68	0x3bae742c	0.0053239074
69	0x3d4b9156	0.04969915
70	0xbe1b872e	-0.15188286
71	0xbe130db4	-0.14360696
72	0xbe4ac219	-0.19800605
73	0xbd02d2ce	-0.03193932
74	0xbd15081a	-0.03638468
75	0xbd5e7cb1	-0.054318134
76	0x3dfcbdf3	0.123409174
77	0x3d744b2a	0.059641995
78	0x3d8b4e76	0.068020746
79	0xbdb72369	-0.08942301
80	0x3c1ffb79	0.009764546
81	0x3c563f2f	0.013076588
82	0x3c1ad90f	0.009451165
83	0x3d590976	0.05298754
84	0xbe4f01e8	-0.20215571
85	0xbe2f4075	-0.17114432
86	0x3caab6ef	0.020839183
87	0x3c9b715d	0.018974954
88	0xbd0436ea	-0.032278933
89	0x3d97c7f3	0.07411184
90	0xbd7c71db	-0.06163202
91	0xbdfde513	-0.12397208
92	0xbe1eaa51	-0.15494658
93	0xbd7b3c62	-0.061336882
94	0xbe0c647c	-0.13710207
95	0x3d353a2d	0.044244934
96	0x3c04c449	0.008103439
97	0x3bb0caca	0.005395268
98	0xbd477959	-0.04869971
99	0x3c91e3c7	0.017808808
100	0xbdae193e	-0.08500908
101	0x3c1ff166	0.009762144
102	0xbe34f87e	-0.17672917
103	0xbe55f192	-0.20892933
104	0x3d144a4e	0.036203675
105	0xbe060d37	-0.13090979
106	0x3d1ad4c7	0.037800577
107	0xbdeddcf8	-0.11614412
108	0xbc7df2f8	-0.015499823
109	0xbdf7fff7	-0.12109368
110	0xbdac5e19	-0.08416385
111	0xbe40854d	-0.1880085
112	0xbdc4032c	-0.095709175
113	0xbe84267b	-0.25810608
114	0xbdcd3d30	-0.10021436
115	0xbeebd4a0	-0.46060658
116	0xbe702b00	-0.23453903
117	0xbe678738	-0.22610176
118	0xbe44a027	-0.19201718
119	0xbe4fbe25	-0.20287378
120	0x3e00a2c9	0.12562098
121	0x38a4663b	7.839171e-05
122	0xbdbe9443	-0.093056224
123	0xbe36e321	-0.1786008
124	0xbd17f77c	-0.037101254
125	0x3af43ec8	0.0018634433
126	0x3e467175	0.19379218
127	0xbc904715	-0.01761202
128	0xbdcfa34c	-0.10138568
129	0x3e0298eb	0.12753646
130	0xbdf22df6	-0.118251726
131	0xbe54cbf1	-0.20780922
132	0x3dbcca5a	0.09218283
133	0x3dad0fb6	0.08450262
134	0x3df6524f	0.12027418
135	0xbd144cba	-0.036205985
136	0xbf4508ea	-0.76966727
137	0xbef26f92	-0.47350746
138	0xbf63625d	-0.88821965
139	0xbed598cd	-0.4171814
140	0xbe33fa1f	-0.17575882
141	0xbeacba0a	-0.33735687
142	0xbe0fc7d5	-0.14041074
143	0xbe32dc9b	-0.17466967
144	0xbd11d22e	-0.035600834
145	0x3e0242e8	0.12720835
146	0xbdff61f4	-0.12469855
147	0xbc8e2103	-0.017349726
148	0xbe70a6cc	-0.23501128
149	0x3e9f27cb	0.31085047
150	0xbd0aaf16	-0.03385838
151	0xbe78bdef	-0.24291204
152	0x3d82609a	0.063660815
153	0x3d39461c	0.045232877
154	0xbe6a34f7	-0.22871767
155	0xbe463f2a	-0.19360033
156	0xbe9226d9	-0.28545263
157	0xbe15bf1c	-0.14623684
158	0xbd9b9d32	-0.07598342
159	0x3e2299e6	0.1587902
160	0x3d34463c	0.044012293
161	0x3e55bd47	0.20872985
162	0x3e750e7f	0.23931311
163	0x3e7731bd	0.24140067
164	0xbecb70df	-0.3973455
165	0x3da06343	0.07831433
166	0xbddc7c17	-0.10765856
167	0xbdaaa9ef	-0.083331935
168	0x3e9826ba	0.29717046
169	0x3e47aa63	0.19498591
170	0x3e54db6a	0.20786825
171	0x3cd61616	0.026133578
172	0xbe4c3d0a	-0.1994516
173	0x3e07166c	0.13192147
174	0x3d26c2a3	0.040712964
175	0x3df19cc2	0.11797477
176	0xbea415ff	-0.32048032
177	0xbe8458d7	-0.2584903
178	0x3bec130e	0.00720442
179	0x3d3b5d8c	0.04574351
180	0xbc5935e6	-0.013257479
181	0xbdc3630d	-0.09540377
182	0xbd9755a4	-0.073893815
183	0x3e9f1cf1	0.31076768
184	0x3e08b401	0.13349916
185	0xbea340a6	-0.3188526
186	0xbe103672	-0.14083269
187	0x3e000ddd	0.12505288
188	0x3cb8e84f	0.02257171
189	0xbd7bbf24	-0.061461583
190	0xbd35422e	-0.044252567
191	0x3c16fca8	0.009215511
192	0x3d52e8cc	0.051491544
193	0x3eac8a6c	0.33699358
194	0x3f150367	0.58208317
195	0x3e84e49a	0.2595566
196	0x3ee890fc	0.45423114
197	0x3e2a4213	0.16626768
198	0x3d431104	0.04762365
199	0x3e5e22ad	0.21692915
200	0x3c044c14	0.008074779
201	0xbdce635e	-0.100775465
202	0x3d94b0ef	0.0726031
203	0x3d20cf09	0.039259944
204	0x3e9c2dca	0.30503684
205	0xbdc9a658	-0.09846181
206	0xbd35de45	-0.044401426
207	0x3c7055d2	0.014668899
208	0xbe213f19	-0.15746726
209	0xbeeb0aed	-0.45906773
210	0xbe050830	-0.12991405
211	0x3e941ff8	0.2893064
212	0xbe0dd3de	-0.13850352
213	0xbe865243	-0.26234636
214	0xbdefe468	-0.11713487
215	0x3e93e7d7	0.28887817
216	0xbc4b68ea	-0.01241515
217	0xbd170b72	-0.03687615
218	0xbcf54bf8	-0.029943451
219	0xbe10e868	-0.14151156
220	0x3e0c7c06	0.13719186
221	0xbe91623f	-0.28395268
222	0xbd6e54cd	-0.05818634
223	0x3bff7b8c	0.0077967104
224	0x3c01f30b	0.007931481
225	0xbd82ce1c	-0.063869685
226	0x3da77490	0.081765294
227	0x3d9873a9	0.074439354
228	0xbe29b837	-0.16574179
229	0xbdd4035f	-0.103522055
230	0x3de2d48c	0.11075696
231	0x3ceccd83	0.02890659
232	0xbce6649f	-0.028124152
233	0x3d14f98a	0.03637079
234	0x3ca4abd3	0.020101463
235	0x3b35fdb2	0.0027769622
236	0xbde80ee2	-0.11330964
237	0x3e892c8c	0.267918
238	0xbe278eb9	-0.16363038
239	0xbe025497	-0.12727581
240	0x3d0c236d	0.034213472
241	0xbd853acd	-0.06505356
242	0xbd91f2f1	-0.071264155
243	0x3ca551be	0.02018058
244	0x3d924775	0.071425356
245	0xbd91e374	-0.07123461
246	0x3d1503d5	0.036380608
247	0x3d8b7c91	0.068108685
248	0x3d7a33e5	0.061084647
249	0x3dfe0055	0.12402407
250	0xbe0c7565	-0.13716657
251	0xbcb63ef9	-0.022246825
252	0xbe37ee4e	-0.17962
253	0xbe2ea528	-0.1705519
254	0x3c0a03ad	0.008423728
255	0x3e4d49a7	0.20047627

features.0.bias f4 [32]
0	0x3ea65814	0.32489073
1	0xbe388654	-0.18019992
2	0xbed96a45	-0.4246389
3	0x3eb8b1ff	0.360733
4	0xbd7e2a95	-0.06205233
5	0x3e9a9311	0.30190328
6	0xbdd0daaf	-0.101979606
7	0x3da3becd	0.07995377
8	0xbe90a0ea	-0.28247768
9	0xbd31112b	-0.043229263
10	0xbe2cdb9e	-0.16880652
11	0x3eb23c53	0.3481165
12	0xbdd101af	-0.10205399
13	0x3ec1ef56	0.3787791
14	0xbdcb4cce	-0.09926759
15	0x3de96a69	0.11397249
16	0xbe96e800	-0.29473877
17	0xbdbb9f90	-0.091612935
18	0x3e7f2f2f	0.24920343
19	0x3e6c09cc	0.23050612
20	0xbe387919	-0.18014945
21	0x3ec14553	0.37748203
22	0xbd7b2844	-0.061317697
23	0x3eaeb2f3	0.34120902
24	0x3ab60b9f	0.0013888961
25	0x3ead2640	0.33818245
26	0xbdb1ee7a	-0.08688064
27	0xbe098843	-0.13430886
28	0xbd41c7fd	-0.047309864
29	0x3e6b41a6	0.22974262
30	0xbd4d2d7d	-0.05009221
31	0x3e948314	0.29006255

features.2.weight f4 [64, 32, 3, 3]
0	0xbd9b5ac2	-0.0758567
1	0xbd12f4ed	-0.03587811
2	0xbd28c7c6	-0.041206144
3	0xbc56032e	-0.0130622815
4	0xbccac6d5	-0.024753014
5	0xbd96733d	-0.07346199
6	0x3998da78	0.0002915447
7	0xbc77370c	-0.015088808
8	0xbca546ea	-0.020175416
9	0xbd20e551	-0.039281193
10	0xbd80c7ae	-0.06288086
11	0xbda9b2db	-0.08286067
12	0xbd20b54e	-0.039235406
13	0xbcd3e53f	-0.025866149
14	0xbc204178	-0.009781234
15	0xbd772f09	-0.06034759
16	0x3c6ad0ae	0.01433198
17	0xbc8b1d3e	-0.016981717
18	0xba3b0db0	-0.00071355235
19	0xbd094548	-0.033513337
20	0xbca3961c	-0.019969039
21	0xbd95919c	-0.073031634
22	0xbcaa69c6	-0.02080239
23	0xbb48dbfb	-0.0030648697
24	0xbc37ddf7	-0.011222354
25	0xbc750488	-0.014954694
26	0xbda1c4a3	-0.078988336
27	0xbd41d2ee	-0.0473203
28	0xbc99f273	-0.018792367
29	0xba03ac2e	-0.000502291
30	0xbc9e8999	-0.019352721
31	0xbd537e63	-0.051634204
32	0xbd85f811	-0.065414555
33	0xbd50695c	-0.05088173
34	0xbcda2850	-0.02663055
35	0xbc3008de	-0.010744302
36	0xbcfd6426	-0.030931544
37	0xbd204cea	-0.03913585
38	0xbdb4ecf4	-0.08834258
39	0xbd2a9be5	-0.04165258
40	0xbd9dbafe	-0.077016816
41	0xba80aefc	-0.0009817774
42	0xbdca161a	-0.09867497
43	0xbc56148f	-0.013066425
44	0xbd3d8911	-0.046273295
45	0xbdac931a	-0.08426495
46	0xbdac99d4	-0.08427778
47	0xbc68d799	-0.014211559
48	0xbdca0f3c	-0.09866187
49	0xbcbbba5d	-0.022916013
50	0xbd072b78	-0.03300044
51	0xbbcda769	-0.0062760604
52	0xbdbb39e6	-0.091419026
53	0xbd70bbe7	-0.058772948
54	0xbd61379e	-0.05498468
55	0xbdb20732	-0.08692779
56	0xbdd8998a	-0.1057616
57	0x3bab215d	0.005222483
58	0xbd3b0b23	-0.045664918
59	0xbdd7b378	-0.10532278
60	0xbdaadc1a	-0.08342762
61	0xbd668159	-0.0562757
62	0x3b9102c8	0.0044253804
63	0xbd7a985e	-0.061180465
64	0xbcd4e232	-0.025986765
65	0xbd691729	-0.056906853
66	0xbde24d21	-0.110498674
67	0xbd62a69b	-0.05533467
68	0xbdda19da	-0.10649462
69	0xbc53cdcc	-0.012927484
70	0xbd1f9717	-0.03896245
71	0xbc556a27	-0.013025797
72	0xbbbef29f	-0.0058272625
73	0xbd01d2e2	-0.031695254
74	0xbde43cc7	-0.11144405
75	0xbdbebdb2	-0.09313525
76	0xbd5aadf1	-0.05338854
77	0xbd0b5fa9	-0.034026776
78	0xbd83684d	-0.06416378
79	0xbd4ddaab	-0.050257366
80	0xbd859e58	-0.06524342
81	0xbd64d5af	-0.055867847
82	0xbd1113e4	-0.03541936
83	0xbd00cc94	-0.0314451
84	0xbd7f8941	-0.062386755
85	0x39f7a176	0.0004723181
86	0xbc767396	-0.015042206
87	0xbdab4a08	-0.0836373
88	0xbdd630c4	-0.1045852
89	0xbc28834d	-0.010285211
90	0xbd13cebf	-0.03608584
91	0xbd42691a	-0.047463514
92	0xbd090421	-0.033451203
93	0xbda5bd9c	-0.08092806
94	0xbd66138b	-0.05617098
95	0xbcda5937	-0.02665387
96	0xbd4e4155	-0.050355274
97	0x3c8f6a35	0.017506698
98	0xbcd2044e	-0.025636818
99	0xbd2a99cc	-0.04165058
100	0xbd14021b	-0.03613482
101	0xbd44e11b	-0.04806624
102	0xbde75cb5	-0.11296979
103	0xbdd313fd	-0.10306547
104	0xbda5aafd	-0.08089254
105	0xbab02a66	-0.001344037
106	0xbd17b17f	-0.037034508
107	0xbde07755	-0.10960261
108	0xbd69c6e8	-0.057074457
109	0xbdd8e909	-0.10591323
110	0xbd0b4008	-0.03399661
111	0xbdb9e956	-0.090777084
112	0xbdba009b	-0.09082147
113	0xbd405ae4	-0.04696168
114	0xbbf2f27e	-0.007414161
115	0xbda90346	-0.082525775
116	0xbcf09d4b	-0.029371878
117	0xbd15505f	-0.0364536
118	0xbda0ca33	-0.078510664
119	0xbd114b7f	-0.03547239
120	0xbd222d7f	-0.03959417
121	0xbde88248	-0.11352974
122	0xbd9a9864	-0.075485975
123	0xbd583219	-0.05278215
124	0xbd8b225f	-0.06793665
125	0xbd182a89	-0.03714994
126	0xbd917e0f	-0.07104122
127	0xbd9bda8a	-0.076100424
128	0xbd68e2fb	-0.05685709
129	0xbd3b29ff	-0.045694347
130	0xbd1bc607	-0.03803065
131	0xbbce8253	-0.006302157
132	0xbb9af356	-0.004728715
133	0xbc86ff70	-0.016479224
134	0xbc8e0019	-0.017334031
135	0xbce37498	-0.027765557
136	0xbd639531	-0.055562202
137	0xbda64c11	-0.08119977
138	0xbc91d583	-0.017802006
139	0xbd82832b	-0.063726746
140	0xbd592978	-0.053018063
141	0xbd91c374	-0.07117358
142	0xbcbff334	-0.023431398
143	0xbd0f749d	-0.03502332
144	0xbd6e6138	-0.058198184
145	0xbd784231	-0.06061
146	0xbb137a38	-0.0022503268
147	0xbdb8587e	-0.090012535
148	0xbd647c7e	-0.055782788
149	0xbd830b6b	-0.06398662
150	0xbdaa86b7	-0.08326476
151	0xbc9e5f7a	-0.019332636
152	0xbd152dde	-0.036420695
153	0xbd701bb9	-0.05862019
154	0xbd057e3b	-0.032591086
155	0xbdc1d140	-0.094637394
156	0xbd569740	-0.052390337
157	0xbd4d49d2	-0.05011923
158	0xbd957d96	-0.07299344
159	0xbd453fa1	-0.048156384
160	0xbd86f682	-0.065899864
161	0xbd9aebd7	-0.07564514
162	0xbc6030ba	-0.013683492
163	0xbd6b94e3	-0.057515036
164	0xbcb5ef01	-0.022208693
165	0x3bae8e0a	0.005326991
166	0xbd83dbbc	-0.064383954
167	0xbd92c3ed	-0.07166276
168	0xbdaef734	-0.08543244
169	0xbd3aab59	-0.045573566
170	0xbd98ad5f	-0.07454943
171	0xbdd4167d	-0.10355852
172	0xbc8e9081	-0.01740289
173	0xbde0419d	-0.10950015
174	0xbd4afd5d	-0.049558032
175	0xbcd43499	-0.025903987
176	0xbd7adcfd	-0.061245907
177	0xbd9e6b7d	-0.077353455
178	0xbda1eae3	-0.07906129
179	0xbda7a26a	-0.08185275
180	0xbd5e744f	-0.05431014
181	0xbcbaa513	-0.022783792
182	0xbc44ea66	-0.012018776
183	0xbd9f23b4	-0.07770482
184	0xbd820225	-0.06348065
185	0xbd1232cf	-0.035692986
186	0xbda3172c	-0.07963404
187	0xbd0c3f0f	-0.034239825
188	0xbdd57c6e	-0.10424124
189	0xbd97e0b9	-0.07415909
190	0xbce09c70	-0.027418345
191	0xbdc14a3a	-0.09437986
192	0xbc062417	-0.008187315
193	0xbdbddd61	-0.0927074
194	0xbd9cf70f	-0.0766431
195	0xbdace246	-0.08441596
196	0xbcaac6eb	-0.020846805
197	0xbd3c1cd4	-0.04592593
198	0xbde1297e	-0.10994242
199	0xbd281ad6	-0.041041218
200	0xbd243905	-0.04009344
201	0xbd9c98f9	-0.07646365
202	0xbdc0766f	-0.093975894
203	0xbd8ccfd4	-0.068755776
204	0xbdcd92a7	-0.10037737
205	0xbcb91bf5	-0.022596339
206	0xbd1bb94f	-0.03801852
207	0xbdc49d21	-0.096002825
208	0xbdaee961	-0.08540607
209	0xbde1148a	-0.10990246
210	0xbc7662a0	-0.0150381625
211	0xbd85a7a8	-0.065261185
212	0xbdb06e75	-0.08614818
213	0xb968584c	-0.00022158137
214	0xbdb77e3b	-0.089596234
215	0xbcfdaac1	-0.03096521
216	0xbc9e5c86	-0.019331228
217	0xbd6fb4bc	-0.05852197
218	0xbda06379	-0.07831473
219	0xbc4d5e2d	-0.01253466
220	0xbdbe215c	-0.092837065
221	0x3ba31519	0.0049768803
222	0xbdc9a6e8	-0.09846288
223	0xbda37439	-0.07981152
224	0xbdcd649c	-0.10028955
225	0xbd120f15	-0.035658915
226	0xbd72ea40	-0.05930543
227	0xbdde6d93	-0.108607434
228	0xbd3bdd17	-0.045865145
229	0xbd3bde82	-0.045866497
230	0xbd28fea7	-0.04125848
231	0x3adc556b	0.0016810125
232	0x3aec28ef	0.001801757
233	0xbdb19de7	-0.086726956
234	0xbdd832f5	-0.10556594
235	0xbce8aebc	-0.028403632
236	0xbcb0c17d	-0.021576637
237	0xbdc9cd15	-0.098535694
238	0xbd961f4e	-0.0733019
239	0xbd8f75e3	-0.07004907
240	0xbdbe8265	-0.093022145
241	0xbd21b2ad	-0.03947704
242	0xbc18dccc	-0.009329986
243	0xbceb35a3	-0.0287121
244	0xbcf2c50d	-0.029634977
245	0xbdc09970	-0.09404266
246	0xbc73af87	-0.014873392
247	0xbde3a4b8	-0.11115402
248	0xbbf24815	-0.0073938468
249	0xba663fe5	-0.0008783325
250	0xbdb08019	-0.08618183
251	0xbd5b72f8	-0.05357644
252	0xbdb3117b	-0.087435685
253	0xbda916c4	-0.08256295
254	0xbd642878	-0.055702657
255	0xbd8b90a3	-0.06814697

features.2.bias f4 [64]
0	0xbd1532ee	-0.036425523
1	0xbcc94ce1	-0.024572792
2	0xbd65987a	-0.056053616
3	0xbd49c11e	-0.049256437
4	0xbcce3430	-0.02517137
5	0xbdc1961a	-0.09452458
6	0xbdb27478	-0.08713621
7	0xbd96675b	-0.07343932
8	0xbd463d19	-0.04839811
9	0xbdaed015	-0.08535782
10	0xbda50237	-0.08057063
11	0xbd2b29ec	-0.041788027
12	0xbd85fa05	-0.06541828
13	0xbd9b2b50	-0.075766206
14	0xbd51e19e	-0.051240556
15	0xbaadf43f	-0.0013271644
16	0xbda30493	-0.07959857
17	0xbdc64642	-0.09681369
18	0xbea6b8a0	-0.32562733
19	0xbd461bbb	-0.04836629
20	0xbde98d0f	-0.11403858
21	0xbcaa0428	-0.020753935
22	0xbced329a	-0.028954793
23	0xbdce2205	-0.100650825
24	0xbd54ed96	-0.051984392
25	0xbd4565d4	-0.048192814
26	0xbced1316	-0.028939765
27	0xbc3f5a86	-0.011679297
28	0xbca052c3	-0.019570714
29	0xbcd20839	-0.025638686
30	0xbcac8c9d	-0.021063143
31	0xbcab8daa	-0.020941574
32	0xbd934750	-0.07191336
33	0xbd912f83	-0.0708914
34	0xbdd02aa0	-0.1016438
35	0xbd1889f0	-0.037240922
36	0xbda6ab64	-0.08138159
37	0xbd2f3149	-0.04277161
38	0xbcf06772	-0.029346202
39	0xbc21f6bf	-0.009885489
40	0xbdbc3f55	-0.09191767
41	0xbcdd3460	-0.027002513
42	0xbc426b25	-0.011866366
43	0xbd2b4395	-0.041812498
44	0xbce0bab8	-0.027432784
45	0xbd97d107	-0.07412916
46	0xbd68bb4a	-0.056819238
47	0xbcb3948d	-0.02192142
48	0xbd0b1c22	-0.033962376
49	0xbdce42b6	-0.10071318
50	0xbc562df9	-0.013072484
51	0xbd80e087	-0.06292825
52	0xbd80eaac	-0.0629476
53	0xbd3d6ace	-0.046244435
54	0xbdc05303	-0.09390833
55	0xbd8f62a0	-0.07001233
56	0xbdefeccd	-0.11715088
57	0xbcfacaaf	-0.030614225
58	0xbc184cb4	-0.009295631
59	0xbbfd9e64	-0.007739829
60	0xbdcbd76d	-0.099531986
61	0xbd72f57a	-0.059316136
62	0xbca99fce	-0.020706084
63	0xbd55e25a	-0.05221782

features.4.weight f4 [64, 64, 3, 3]
0	0xbcbbc7c0	-0.022922397
1	0xbcdb1a44	-0.026745923
2	0xbca1bfc7	-0.019744767
3	0xbd0ae330	-0.03390807
4	0x39d6b9ba	0.00040955638
5	0xbc8a7ecc	-0.016906165
6	0x3d14692c	0.036233112
7	0xbd24441d	-0.04010402
8	0xbcbd0627	-0.023074223
9	0xbc817c58	-0.015806362
10	0xbb93657b	-0.0044981814
11	0x3c7750d8	0.015094958
12	0xbcd55788	-0.026042715
13	0xbc8ee42f	-0.01744279
14	0xbc19558d	-0.009358776
15	0xbcec5fe4	-0.028854318
16	0x3c05fe21	0.008178265
17	0x3c25ea94	0.010126729
18	0x3d659bd5	0.056056816
19	0x3c3d8ae2	0.011568757
20	0x3c6d6a0d	0.0144906165
21	0x3ccbbbbd	0.024869794
22	0x3b6fc1ad	0.0036583946
23	0x3d38f22e	0.045152836
24	0xbc2a7585	-0.010403995
25	0x3d4d64f7	0.050145116
26	0x3c4b0b05	0.012392764
27	0xbc9ad52c	-0.018900476
28	0xbc2b5720	-0.010457784
29	0x3d685e2b	0.05673043
30	0xbc2f81c3	-0.01071209
31	0x3cf4a1fa	0.029862393
32	0x3d163787	0.03667405
33	0xbc63658b	-0.01387919
34	0xbc9b7159	-0.018974947
35	0x3ced4e6c	0.028968059
36	0xbd0a8369	-0.03381673
37	0xbd53da07	-0.0517216
38	0xbbcc4df6	-0.0062348796
39	0xbd4a93cd	-0.04945736
40	0xbd4484fb	-0.047978383
41	0xbd51e5f1	-0.05124468
42	0xbd09bf67	-0.0336298
43	0xbcff9d53	-0.031202948
44	0xbcd855f9	-0.026408182
45	0xbd26ebf5	-0.04075237
46	0xbd5cf672	-0.053945966
47	0xbdc49a71	-0.0959977
48	0xbd3de804	-0.046363845
49	0xbd4b4b2a	-0.04963223
50	0xbdbd23cd	-0.09235344
51	0xbdb9cc75	-0.090722
52	0xbcdb9bbe	-0.026807662
53	0xbd3f7775	-0.046744782
54	0xbda40c8f	-0.08010208
55	0xbdacc842	-0.08436634
56	0xbd93bb23	-0.07213428
57	0xbdcfd623	-0.10148265
58	0xbd8d498c	-0.068987936
59	0xbd805784	-0.06266692
60	0xbd8d0c9d	-0.068871714
61	0xbd8399e1	-0.064258344
62	0xbdb45087	-0.08804422
63	0xbc39aa4f	-0.011332109
64	0x3cc03a7f	0.023465393
65	0xbc9f6dda	-0.019461561
66	0xbd1b5368	-0.03792134
67	0xbd0ebc33	-0.03484745
68	0xbd57ad45	-0.052655477
69	0xbcd87790	-0.0264242
70	0x3b18f99c	0.0023342138
71	0x3c97a444	0.018510945
72	0xbd033faf	-0.032043155
73	0xbc2bb80d	-0.010480893
74	0x3bf8f54e	0.007597602
75	0x3ca18bf5	0.019720057
76	0x3ba18e04	0.0049302597
77	0x3cc0862c	0.023501478
78	0xbb36cb2a	-0.0027892091
79	0xbc0689cb	-0.008211563
80	0xbd1eaac3	-0.03873707
81	0x3cf6e7ae	0.03013977
82	0x3c94ba46	0.018155228
83	0x3da66233	0.08124199
84	0x3b0beb30	0.00213499
85	0x3d412f8a	0.047164477
86	0x3d9b358a	0.07578571
87	0x3d377b6c	0.04479544
88	0x3cd100fd	0.025513167
89	0x3cd435c9	0.025904553
90	0xbcf8b553	-0.0303599
91	0xbd851838	-0.0649876
92	0xbd909515	-0.07059685
93	0xbd3fbc61	-0.04681051
94	0xbcb9a1c9	-0.022660153
95	0xbd0d0e88	-0.034437686
96	0xbdad1d23	-0.08452823
97	0xbd9664ff	-0.07343482
98	0xbd01ee3c	-0.03172134
99	0xbcfbac92	-0.030721936
100	0xbc7615e5	-0.0150198685
101	0xbd75eb5d	-0.060038913
102	0xbcf1271a	-0.02943759
103	0xbd3cc611	-0.04608733
104	0xbc6c6866	-0.014429187
105	0xbcf57f00	-0.029967785
106	0x3c9a8c42	0.018865708
107	0xbd08815b	-0.033326488
108	0x3a423880	0.0007408932
109	0x3d1cc328	0.038272053
110	0x3ce31e04	0.027724274
111	0x3d4e929b	0.050432783
112	0x3caf5873	0.02140448
113	0x3c940f27	0.018073631
114	0x3d349afe	0.044093125
115	0x3d475284	0.048662677
116	0x3d14bd12	0.036313124
117	0xbca728d8	-0.020405218
118	0xbd9e41d1	-0.07727397
119	0xbd8ba678	-0.06818861
120	0xbd0c46c1	-0.034247164
121	0xbda7fd20	-0.08202577
122	0xbd7b902b	-0.061416786
123	0xbd74d1a6	-0.05977025
124	0xbd8a8082	-0.06762792
125	0xbdabde63	-0.08392026
126	0x3c8e0ab0	0.01733908
127	0x3cb4a7ed	0.02205273
128	0x3cca1899	0.024669932
129	0x3d2f9d5d	0.042874683
130	0xbb7297e4	-0.0037016803
131	0xbcdd6700	-0.027026653
132	0x3c6cef68	0.014461376
133	0xbcf946ea	-0.030429322
134	0xbbdd9e05	-0.006763222
135	0xbd0081db	-0.03137384
136	0xbd15ddf6	-0.03658863
137	0xbd12007f	-0.035645004
138	0x3c04b341	0.008099378
139	0xbc455660	-0.012044519
140	0xbcd1fe06	-0.025633823
141	0xbc560210	-0.013062015
142	0x3c9031b4	0.017601825
143	0x3d1f0dd9	0.038831566
144	0x3e4b31d1	0.19843222
145	0x3e11c7c3	0.1423636
146	0x3e8ae141	0.2712498
147	0x3d5e2962	0.054238684
148	0x3dd0f7e3	0.10203531
149	0x3e89272b	0.26787695
150	0x3d2a1bb6	0.041530333
151	0x3d4c564d	0.04988699
152	0x3e806197	0.25074455
153	0x3d6dd0ee	0.05806058
154	0xbbbf9d6f	-0.005847625
155	0x3d5165a3	0.05112232
156	0x3d982578	0.074290216
157	0xbbe7b1fa	-0.007070777
158	0x3bb5751f	0.0055376436
159	0x3b79a643	0.0038093484
160	0x3d9435c9	0.07236821
161	0x3c80515e	0.015663799
162	0x3e3884a4	0.18019348
163	0x3e44b842	0.19210914
164	0x3e534813	0.20632963
165	0x3e42486d	0.1897294
166	0x3e4744ba	0.19459811
167	0x3e2aa5f4	0.16664869
168	0x3e5ab3f0	0.21357703
169	0x3e703ed5	0.23461469
170	0x3e37bacf	0.17942356
171	0xbcaa6551	-0.020800265
172	0xbcbd26d2	-0.0230898
173	0xbcb868e6	-0.022510957
174	0xbd2e351d	-0.04253112
175	0xbd1c00fe	-0.038086884
176	0xbd2eebfc	-0.04270552
177	0xbcaeba87	-0.021329178
178	0xbd7a56bb	-0.06111787
179	0xbd0fe978	-0.035134763
180	0xbd29a964	-0.04142131
181	0xbdb3b9fe	-0.087757096
182	0xbcb973a8	-0.022638157
183	0xbcba5f0d	-0.022750402
184	0xbd76d87f	-0.06026506
185	0xbd603892	-0.05474145
186	0xbcbede21	-0.023299279
187	0xbcbfdabd	-0.023419732
188	0xbd6aa5cb	-0.05728702
189	0xbda97323	-0.08273914
190	0xbd4995cc	-0.049215123
191	0xbd057526	-0.032582425
192	0xbd02ca9d	-0.03193151
193	0xbd25b60e	-0.040456824
194	0xbda6e388	-0.08148867
195	0xbc8e9a64	-0.017407604
196	0xbc15fc6a	-0.0091544185
197	0xbd9f07fc	-0.07765195
198	0xbb3b39ce	-0.002856839
199	0x3d83c90f	0.06434833
200	0x3c282c04	0.0102644
201	0x3d404e60	0.046949744
202	0x3d52768e	0.051382594
203	0x3d322463	0.043491732
204	0xbc04968a	-0.008092532
205	0x3a24ee1d	0.0006291585
206	0x3d1fecd2	0.03904421
207	0xbd3fd791	-0.04683644
208	0xbd927cef	-0.071527354
209	0xbcff321c	-0.031151824
210	0xbd6cdf5a	-0.057830192
211	0xbd5ada1a	-0.053430654
212	0xbd529432	-0.05141086
213	0xbd9fd66a	-0.07804568
214	0xbdbdce37	-0.09267848
215	0xbd3ef21d	-0.046617616
216	0x3d0f6ab9	0.035013888
217	0x3b7054c4	0.0036671618
218	0x3c7a4c24	0.015276942
219	0x3d2648c8	0.040596753
220	0x3b5b452b	0.0033457975
221	0x3cbab4e9	0.022791343
222	0x3d4a4b58	0.04938826
223	0x3d4c988b	0.049950164
224	0x3d5a1b86	0.053248905
225	0xbca82634	-0.02052603
226	0xbcb0319c	-0.02150803
227	0xbd539c79	-0.051662896
228	0xbd9f7ea5	-0.077878274
229	0xbd077f50	-0.0330804
230	0xbd117fd7	-0.03552231
231	0xbd4fbc74	-0.050716832
232	0xbd1d5e5e	-0.038420074
233	0xbd803bac	-0.062613815
234	0xbd5b4b4a	-0.053538598
235	0xbd2bc99f	-0.041940328
236	0xbd374911	-0.044747416
237	0xbd27ee91	-0.040999
238	0xbcf81fe4	-0.030288644
239	0xbda0f1b9	-0.07858605
240	0xbd015644	-0.03157641
241	0xbdc05cba	-0.09392686
242	0xbd3b02f4	-0.045657113
243	0xbdce945a	-0.100868896
244	0xbd9ac610	-0.07557309
245	0xbdbf0714	-0.09327522
246	0xbd89bdd3	-0.06725659
247	0xbd653459	-0.055958126
248	0xbdb44a9b	-0.08803292
249	0xbc98483c	-0.018589132
250	0xbcaca672	-0.021075461
251	0xbd894aff	-0.067037575
252	0x3c9cdee6	0.019149255
253	0xbcdf83c7	-0.027284516
254	0xbcf985e7	-0.030459357
255	0x3c8d32da	0.017236162

features.4.bias f4 [64]
0	0xb93a60dc	-0.00017774425
1	0xb91373d0	-0.00014062156
2	0x35294466	6.305694e-07
3	0xbe214548	-0.15749085
4	0x9e36576a	-9.6530766e-21
5	0x250399d4	1.1414558e-16
6	0x0eb6e667	4.5088333e-30
7	0x9690db98	-2.3403038e-25
8	0x1eb95b20	1.9625325e-20
9	0x200e5d42	1.2058724e-19
10	0xa51aa8f3	-1.3414613e-16
11	0x29de11d3	9.8618725e-14
12	0xa2122d61	-1.9810713e-18
13	0x0117587d	2.7797807e-38
14	0x1e54604b	1.12430995e-20
15	0x956d9ac4	-4.7983857e-26
16	0x8b775c66	-4.7639982e-32
17	0xaec97673	-9.1614626e-11
18	0x8b7c9d5f	-4.8651827e-32
19	0x30992a62	1.1144261e-09
20	0xa2293ea5	-2.2936935e-18
21	0x89b6a422	-4.3969256e-33
22	0x10844e26	5.2185226e-29
23	0x8b13b261	-2.8445368e-32
24	0x88742a1c	-7.347558e-34
25	0x32f6bbb6	2.872353e-08
26	0xa850627d	-1.1567676e-14
27	0x3130d80e	2.5734184e-09
28	0x3588fdbf	1.020664e-06
29	0x3404a130	1.2352098e-07
30	0x02e51e58	3.3665942e-37
31	0x35b6652a	1.3589499e-06
32	0x330713a6	3.1450007e-08
33	0xbbdd88fc	-0.0067607146
34	0x24a029bc	6.945964e-17
35	0x971fc007	-5.1618043e-25
36	0x33e5f43e	1.0708071e-07
37	0x00303681	4.427656e-39
38	0x0c2376ad	1.2592776e-31
39	0x888c95d2	-8.461166e-34
40	0xa12c2dc3	-5.833643e-19
41	0x00b5fdaa	1.6713222e-38
42	0xa43dbf3e	-4.114483e-17
43	0xbcfcd3b7	-0.030862672
44	0xa7492cf5	-2.7918725e-15
45	0x8d6d4514	-7.3114413e-31
46	0x3c93acb1	0.018026682
47	0x1a857e2a	5.521134e-23
48	0xbd6fefc3	-0.058578264
49	0x8cf493cd	-3.7683107e-31
50	0xaf197bcf	-1.3959255e-10
51	0x8b95f33a	-5.775868e-32
52	0x942f2633	-8.8427756e-27
53	0x93e4c07e	-5.7745104e-27
54	0x2a0411f4	1.1730184e-13
55	0xa30342df	-7.115685e-18
56	0xac77f5eb	-3.5237323e-12
57	0x28146c43	8.239126e-15
58	0x233cb8ce	1.0230634e-17
59	0x098476db	3.1889615e-33
60	0xb7952e19	-1.778365e-05
61	0xa4a960a8	-7.345581e-17
62	0xb885d2fb	-6.3812324e-05
63	0x36797854	3.7173932e-06

fc.0.weight f4 [32, 71]
0	0x3a5799e5	0.0008224531
1	0x3c040e5e	0.008060066
2	0x3d9c234a	0.07623918
3	0xbd3ed2d0	-0.046587765
4	0xbba5fcb8	-0.005065527
5	0x3a89bda8	0.0010508792
6	0x3cdbb601	0.026820185
7	0xbdb2e868	-0.08735734
8	0x3db9c99c	0.09071657
9	0x3da8c4b1	0.08240641
10	0xbd0dbf77	-0.034606423
11	0xbd6f1c4d	-0.0583766
12	0xbd96280d	-0.07331858
13	0xbc8442d2	-0.016145144
14	0xbb5c73fa	-0.0033638463
15	0xbccfa98f	-0.025349407
16	0xbc4fc992	-0.012682335
17	0xbd9856ec	-0.07438454
18	0x3dc6a627	0.0969966
19	0x3cd58048	0.026062146
20	0xbde7d06b	-0.113190494
21	0x3d074c35	0.03303166
22	0x3cf89d61	0.030348482
23	0xbccb4ff9	-0.024818407
24	0x3dee4e19	0.1163599
25	0xbb832557	-0.004002254
26	0x3d8606fe	0.065443024
27	0xbd43bcb6	-0.04778739
28	0xbdb75f8d	-0.08953772
29	0xbde76018	-0.11297625
30	0xbd1943bb	-0.03741811
31	0xbdaac11a	-0.083376125
32	0xbd6f8c18	-0.058483213
33	0x3de34ac0	0.11098242
34	0xbda9cd1d	-0.082910754
35	0x3d7f2845	0.062294263
36	0xbdf2b0c3	-0.11850121
37	0x3ddc6af0	0.10762584
38	0x3d79b15a	0.06096015
39	0xbdeb3bab	-0.1148599
40	0x3d92600e	0.07147227
41	0xbdef0313	-0.11670508
42	0xbda92b33	-0.08260193
43	0x3d046630	0.032324016
44	0xbd299145	-0.041398305
45	0x3c846d4f	0.016165404
46	0xbaec77d6	-0.0018041085
47	0xbd8cead1	-0.06880725
48	0x3cf27444	0.029596455
49	0x3b96534b	0.004587566
50	0x3d5d917d	0.054093827
51	0x3d510064	0.051025763
52	0x3dee14aa	0.11625035
53	0xbccfaf67	-0.025352193
54	0xbdb155a6	-0.08658914
55	0x3db9b1fe	0.090671524
56	0x3ddb0138	0.10693592
57	0xbde1ffbc	-0.110351056
58	0x3d0afba0	0.033931375
59	0xbd87679a	-0.06611557
60	0xbcb194cd	-0.021677399
61	0x3ba1f87d	0.004942952
62	0xbbeddd69	-0.00725906
63	0xbd0275f7	-0.03185078
64	0xbd955abf	-0.07292699
65	0xbcd544f1	-0.02603385
66	0x3cd8df9b	0.02647381
67	0xbd30eb2e	-0.043193035
68	0x3da2af9a	0.079436496
69	0x3bd5b23e	0.0065214923
70	0xbde4e237	-0.111759596
71	0x3da9e927	0.082964234
72	0x3df29ddb	0.11846515
73	0xbca81a3f	-0.020520328
74	0xbd8cf8d2	-0.06883396
75	0xbc24c54e	-0.010056807
76	0xbda4edb9	-0.080531545
77	0xbddd46b3	-0.108045004
78	0x3d03a00a	0.032135047
79	0xbda6e7a0	-0.08149648
80	0xbd344d78	-0.044019192
81	0x3d97b990	0.0740844
82	0xbce35427	-0.027750088
83	0x3ba64926	0.005074638
84	0xbdf049ee	-0.11732851
85	0x3dc560db	0.09637614
86	0xbd042a2b	-0.032266777
87	0xbd87005f	-0.06591868
88	0xbdebe205	-0.11517719
89	0xbdc66246	-0.09686713
90	0xbd419568	-0.047261626
91	0x3d34cade	0.04413878
92	0x3cd5360c	0.026026748
93	0x3d86d66f	0.06583869
94	0xbd23a552	-0.039952584
95	0x3d2acdfe	0.041700356
96	0x3b5474c8	0.003241824
97	0xbba97084	-0.0051708836
98	0x3dce5b22	0.10075976
99	0xbdd64233	-0.10461845
100	0x3d79936a	0.0609316
101	0x3debb06b	0.115082584
102	0xbc9005a1	-0.01758081
103	0xbdc5ad04	-0.09652141
104	0xbc9db20a	-0.019249935
105	0xbcdec43e	-0.027193185
106	0x3de5269a	0.11189003
107	0x3c869d8f	0.016432552
108	0x3d58f8c8	0.05297163
109	0x3d22b981	0.03972769
110	0x3b500e49	0.0031746796
111	0x3dd53105	0.1040974
112	0xbd2f7831	-0.042839233
113	0xbda1e7c0	-0.07905531
114	0x3d8f751d	0.070047595
115	0xbd8159d2	-0.0631596
116	0x3d713229	0.058885727
117	0xbd818ff4	-0.06326285
118	0xbd80896c	-0.06276211
119	0xbccbc8c2	-0.024876002
120	0xbccb4320	-0.024812281
121	0xbdcf8159	-0.10132093
122	0xbdcad011	-0.09902967
123	0xbc6e9033	-0.014560747
124	0xbd1b934c	-0.03798227
125	0x3db7a3aa	0.08966763
126	0xbd88ddd5	-0.06682936
127	0x3d8ae6d4	0.06782308
128	0xbd85db9c	-0.06536028
129	0xbd575a6a	-0.05257646
130	0x3d6e4d72	0.058179326
131	0xbda36b34	-0.07979432
132	0x3d3ea625	0.046545167
133	0x3db7e863	0.08979871
134	0x3cd0df66	0.02549715
135	0x3dd01019	0.101593204
136	0x3cc8724e	0.024468567
137	0xbd09f53a	-0.033681132
138	0xbdd16fe2	-0.10226418
139	0x3c8cd3b3	0.01719079
140	0xbda16f15	-0.07882515
141	0xbdee73fa	-0.116432145
142	0x3d1276cc	0.035757825
143	0x3df0d6cd	0.1175972
144	0x3d8507e1	0.064956434
145	0xbc8fb448	-0.01754202
146	0xbdb2deae	-0.08733879
147	0x3de87da9	0.11352093
148	0xbe1b016c	-0.15137261
149	0x3dda6065	0.10662917
150	0x3d9243a8	0.07141811
151	0xbd5e689f	-0.054298993
152	0xba99632c	-0.0011702529
153	0xbe2d9543	-0.1695147
154	0x3dc853ba	0.097815946
155	0x3d5dfb94	0.054195
156	0x3e1a7cfb	0.15086739
157	0x3bd6aa3b	0.006551055
158	0x3c8f47d4	0.017490305
159	0xbe1de36a	-0.15418783
160	0xbce48b0c	-0.027898334
161	0xbdc8a0c0	-0.09796286
162	0xbe24d51f	-0.16096924
163	0xbdf500df	-0.11963057
164	0x3d09ffd3	0.03369124
165	0x3d7e79b9	0.062127803
166	0xbdef3bce	-0.11681329
167	0x3dc97371	0.09836472
168	0x3d64f31d	0.055895913
169	0x3d58b464	0.05290641
170	0xbc9c38dc	-0.019070081
171	0x3ce76cf0	0.028250188
172	0xbd5609b2	-0.05225534
173	0xbdb58466	-0.088631436
174	0xbd962b8c	-0.07332525
175	0x3c38cc5f	0.011279195
176	0x3e0f70d6	0.14007887
177	0xbd8d2095	-0.0689098
178	0x3de2f1d8	0.11081284
179	0xbd25ad36	-0.04044839
180	0x3c0fccfa	0.008776898
181	0x3ceb8dff	0.028754232
182	0xbdc9fa9c	-0.09862253
183	0x3d10c05b	0.035339694
184	0xbe3d8de6	-0.18511161
185	0x3c91cb94	0.017797269
186	0x3da3f7d6	0.08006255
187	0xbcc6b5c0	-0.024256587
188	0xbdf39187	-0.118929915
189	0xbd3142dd	-0.043276656
190	0x3c5575f2	0.013028609
191	0xbe199f23	-0.15002112
192	0xbd9f83ae	-0.07788788
193	0x3b8104e2	0.0039373497
194	0x3e312ea6	0.17302951
195	0xbd08b1f0	-0.03337282
196	0x3c570c5b	0.013125504
197	0x3d837668	0.064190686
198	0x3e2bd078	0.16778743
199	0x3e1f97c6	0.1558524
200	0x3dcfaf2f	0.101408355
201	0x3cf3420f	0.029694585
202	0xbd26c6d9	-0.04071698
203	0x3c5121d2	0.012764411
204	0x3dce7ff1	0.10082997
205	0x3dc939de	0.098254904
206	0x3e7f4c1f	0.24931382
207	0x3ea8c963	0.32966146
208	0xbdb10d39	-0.086451
209	0xbe848e4a	-0.25889808
210	0xbf67cf59	-0.9055076
211	0xbe90a57b	-0.28251252
212	0xbe11d7bb	-0.14242451
213	0xbe8d5758	-0.276057
214	0xbdc4c780	-0.09608364
215	0xbea0167f	-0.31267163
216	0x3e464aca	0.19364467
217	0xbe04541e	-0.12922713
218	0xbe6f109a	-0.23346177
219	0x3eb9e1cd	0.36305085
220	0x3dcce894	0.10005298
221	0x3e6247eb	0.22097747
222	0x3e444e32	0.19170454
223	0xbe537637	-0.20650564
224	0x3c914e95	0.017737666
225	0xbe81d765	-0.25359645
226	0x3e8a07b7	0.2695901
227	0x3c74f6dd	0.014951435
228	0xbe7b850b	-0.2456247
229	0xbe5079af	-0.20358919
230	0xbe5b8255	-0.21436436
231	0xbe0622be	-0.1309919
232	0x3e961b2d	0.29317608
233	0x3e22fc02	0.15916446
234	0xbdb1148c	-0.08646497
235	0xbe0ae2c1	-0.13563062
236	0x3e894ed6	0.2681796
237	0x390a69ca	0.00013200115
238	0xbd9141e6	-0.07092647
239	0xbe878586	-0.26469058
240	0x3e922312	0.28542382
241	0x3e84b643	0.25920305
242	0xbe9e0819	-0.30865553
243	0xbe3d54cb	-0.18489377
244	0xbe0b69ef	-0.13614629
245	0xbdd7e859	-0.10542364
246	0xbe00c32a	-0.12574449
247	0xbec330da	-0.38123208
248	0x3e902b6d	0.2815813
249	0xbe012e28	-0.12615263
250	0xbe017e06	-0.1264573
251	0x3e07bd65	0.13255842
252	0xbe6745ed	-0.22585268
253	0xbe7161cc	-0.23572463
254	0x3e11a2c5	0.14222248
255	0x3e30f897	0.1728233

fc.0.bias f4 [32]
0	0x3dbe31a7	0.09286814
1	0x3dcb0874	0.09913722
2	0xbe895279	-0.26820734
3	0xbee17b4e	-0.44039387
4	0xbeb79329	-0.35854462
5	0xbebc7746	-0.36809748
6	0xbdf38179	-0.11889929
7	0xbe8dcaee	-0.27693886
8	0xbcd016f1	-0.025401564
9	0xbdcbad7c	-0.09945199
10	0xbe72bca5	-0.23704775
11	0xbe03be36	-0.12865528
12	0xbed4a7f8	-0.415344
13	0x3df2de34	0.11858788
14	0xbe0e1d7d	-0.13878436
15	0xbe9b3b41	-0.30318645
16	0xbe8eb253	-0.27870426
17	0xbe360fac	-0.17779416
18	0xbda4fe53	-0.08056321
19	0xbe705658	-0.23470438
20	0xbe8bcee7	-0.2730629
21	0xbe5a3cec	-0.21312302
22	0xbe8ef602	-0.27922064
23	0xbe140a37	-0.14457022
24	0xbd6238a6	-0.055229805
25	0xbe4f55a2	-0.2024751
26	0xbe153ae5	-0.14573248
27	0xbd907bab	-0.07054838
28	0x3ec2e83a	0.380678
29	0xbe6ea211	-0.23304011
30	0xbb4adbd1	-0.0030953775
31	0xbdcd0cc3	-0.100122

fc.2.weight f4 [16, 32]
0	0x3d40eca5	0.04710068
1	0x3e1404b1	0.14454915
2	0xbe3feb1e	-0.18742034
3	0xbda94339	-0.08264775
4	0x3bd8b410	0.006613262
5	0x3df34bd8	0.118797004
6	0x3c92888b	0.017887374
7	0xbdb212b0	-0.086949706
8	0x3e12b0b5	0.14325221
9	0x3c264866	0.010149097
10	0xbdf92932	-0.121660605
11	0x3cf72359	0.030168222
12	0x3d513540	0.051076174
13	0xbdd627ae	-0.10456787
14	0xbe06f0f5	-0.13177855
15	0xbc7c0c60	-0.01538381
16	0x3e30ac65	0.17253263
17	0x3dc6de77	0.097104006
18	0x3d85103d	0.06497238
19	0x3cd9fafb	0.026608935
20	0xbd43ef88	-0.047835857
21	0x3e083a94	0.13303596
22	0x3d78d451	0.060749356
23	0xbc8802b9	-0.01660286
24	0x3d25c6bd	0.040472735
25	0x3ef0c811	0.4702764
26	0x3dbeafc3	0.09310868
27	0xbe04bee1	-0.1296344
28	0xbe98e68c	-0.29863393
29	0xbe002195	-0.1251281
30	0xbdb5ae95	-0.088711895
31	0xbe1bf54f	-0.15230297
32	0xbc836da5	-0.016043494
33	0x3d127c80	0.035763264
34	0xbe0c6f50	-0.13714337
35	0xbc7de3c8	-0.015496202
36	0x3de401b5	0.11133138
37	0x3dcaaf32	0.09896697
38	0xbdbd4fae	-0.09243713
39	0xbe403d4b	-0.18773381
40	0x3e4ccf79	0.2000102
41	0x3da1fcdd	0.07909558
42	0x3dda94d7	0.1067292
43	0xbda403f0	-0.080085635
44	0xbd78cf96	-0.060744844
45	0xbd9c323a	-0.076267675
46	0xbe504c88	-0.20341694
47	0xbcf74c49	-0.030187743
48	0x3dd708b4	0.10499707
49	0xbdfeec3d	-0.124474026
50	0x3e04da69	0.12973942
51	0x3d8c0939	0.068376966
52	0xbdbce95f	-0.092241995
53	0xbde5474c	-0.111952394
54	0xbe5d4b97	-0.21610866
55	0x3e329db9	0.17442979
56	0xbcb62d0c	-0.022238277
57	0xbcdb2c86	-0.026754629
58	0xbe063a6a	-0.1310822
59	0x3da3b7b5	0.07994024
60	0xbe26be19	-0.16283454
61	0x3d6eca9f	0.058298703
62	0x3cb97445	0.02263845
63	0x3e2dedd0	0.1698525
64	0x3d0d1f47	0.034453657
65	0x3d7951bc	0.060868964
66	0x3e501838	0.20321739
67	0xbd7cd983	-0.061730873
68	0xbc45d09a	-0.01207366
69	0x3e2572e6	0.16157112
70	0xbe4da761	-0.20083381
71	0xbe370513	-0.1787303
72	0x3d83ed99	0.064418025
73	0xbcf14e77	-0.02945636
74	0xbbefceda	-0.00731836
75	0x3e02ec1b	0.1278538
76	0x3e2e6c42	0.17033485
77	0x3d2fc183	0.042909157
78	0xbcb56fae	-0.02214798
79	0x3de94e56	0.113918945
80	0x3dfe2591	0.12409509
81	0xbd2743be	-0.04083609
82	0xbe2d8531	-0.1694534
83	0x3ec0b2d1	0.37636426
84	0x3bf1f438	0.0073838495
85	0x3c9d0256	0.019166153
86	0x3dfdc711	0.123914845
87	0x3e3817a1	0.17977764
88	0xbd89cebd	-0.06728885
89	0x3e09eaf1	0.1346853
90	0x3cf0f3ad	0.029413069
91	0x3df96748	0.121779025
92	0xbfc31b79	-1.5242759
93	0x3c118d70	0.008883819
94	0xbca82baa	-0.020528633
95	0xbe14f0a6	-0.14544925
96	0xbe06653c	-0.13124555
97	0xbdec251f	-0.11530518
98	0xbd3445c4	-0.044011846
99	0xbe32a92a	-0.17447343
100	0xbe1a2c67	-0.15056
101	0x3e2f53c6	0.17121801
102	0xbd89e092	-0.067322865
103	0xbe1710a5	-0.14752443
104	0xbe47266c	-0.1944825
105	0xbd83217d	-0.06402872
106	0x3c66b601	0.014081479
107	0x3e464d5b	0.19365446
108	0x3cb4f1b7	0.022087915
109	0xbdaa7a96	-0.08324163
110	0x3e22a120	0.15881777
111	0x3e25688c	0.16153163
112	0x3d84399c	0.064563006
113	0x3e4ef101	0.20209123
114	0xbdddc8f9	-0.10829348
115	0x3d1485cb	0.036260407
116	0xbe1f0f38	-0.15533149
117	0xbcc1269b	-0.023577979
118	0x3d03068b	0.03198866
119	0x3dda7c45	0.10668234
120	0xbde9a773	-0.114088915
121	0xbdec3029	-0.11532623
122	0xbd90f171	-0.07077301
123	0x3c56dc22	0.013114007
124	0xbccd3ef7	-0.025054438
125	0x3e3c8ecd	0.18413849
126	0xbdad184a	-0.084518984
127	0xbc6e9b11	-0.014563338
128	0x3d560cff	0.052258488
129	0x3c9921b1	0.018692823
130	0xbec51b99	-0.38497618
131	0xbdd2487d	-0.10267732
132	0x3d83240a	0.06403358
133	0x3d480041	0.048828367
134	0xbe00a256	-0.12561926
135	0xbe90e676	-0.28300828
136	0xbd8bb183	-0.06820967
137	0xbca61090	-0.02027157
138	0x3a2ed2fb	0.0006669012
139	0x3dc25167	0.094881825
140	0xbc8137a4	-0.015773602
141	0x3e300606	0.17189798
142	0x3ddd1d27	0.10796576
143	0x3e1cd517	0.15315662
144	0x3e0f1ff4	0.13977033
145	0xbb547309	-0.00324172
146	0x3ce7d58c	0.02830007
147	0xbd9d570e	-0.0768262
148	0xbeb83e47	-0.35985014
149	0x3c7322fc	0.014839884
150	0xbc871a6f	-0.016492097
151	0x3ddeceee	0.108793125
152	0xbe1235e3	-0.14278369
153	0xbe0e122a	-0.13874117
154	0x3cac01ca	0.020996947
155	0xbe26e449	-0.16298021
156	0xbe4f6bbb	-0.2025594
157	0x3c9363fc	0.017992012
158	0xbd1fbecd	-0.03900032
159	0xbd6ab5de	-0.05730235
160	0xb9ff87dd	-0.00048738616
161	0xbc18b0f3	-0.009319532
162	0x3e23ad8c	0.15984172
163	0xbcd0a1b7	-0.025467737
164	0x3edec918	0.43512797
165	0xbe24ef68	-0.16106951
166	0x3e7e9c92	0.24864414
167	0xbe0b2799	-0.13589324
168	0xbdffa5a8	-0.12482768
169	0x3d7b7867	0.06139412
170	0x3d36d5e1	0.044637565
171	0x3dcc6fb1	0.09982241
172	0x3de0974a	0.10966356
173	0xbe253270	-0.16132522
174	0x3e2f27ab	0.17104976
175	0x3d582134	0.05276604
176	0xbda168d5	-0.07881323
177	0x3c2d7927	0.010587967
178	0xbe19573a	-0.1497468
179	0x3b48ef6a	0.003066028
180	0xbdcfe9b0	-0.10151994
181	0xbdd2a314	-0.10285011
182	0xbe7b1572	-0.245199
183	0xbdbea936	-0.09309618
184	0xbd92e467	-0.071724705
185	0xbe05acb2	-0.1305416
186	0xbdeda509	-0.116037436
187	0x3e2dcfa6	0.16973743
188	0xbf1d2ecd	-0.6139954
189	0xbc0b5d8a	-0.008506188
190	0xbda0f097	-0.07858389
191	0xbd998359	-0.07495756
192	0x3da34049	0.07971246
193	0x3d362858	0.04447207
194	0xbe58f7f1	-0.21188332
195	0xbe737565	-0.23775251
196	0xbe8db4a5	-0.27676883
197	0xbea19a17	-0.31562874
198	0x3a1bccd2	0.00059433014
199	0xbd189de6	-0.03725996
200	0x3daabd42	0.08336879
201	0x3e44c1fd	0.19214626
202	0xbe42def6	-0.19030365
203	0xbdb94a86	-0.09047417
204	0xbee2cad8	-0.44295382
205	0xbd1105b6	-0.035405837
206	0x3dbe146d	0.0928124
207	0xbe30e8a0	-0.1727624
208	0x3e026492	0.12733677
209	0x3e0ec92a	0.13943925
210	0x3d540d4b	0.05177049
211	0x3e7301de	0.23731181
212	0x3e545966	0.20737228
213	0xbda4a03a	-0.08038373
214	0x3ebb752d	0.36612836
215	0xbd906e03	-0.07052233
216	0x3d9308a0	0.071793795
217	0x3dee5d3d	0.116388775
218	0x3d9b04b6	0.07569258
219	0x3c22e48e	0.009942187
220	0x3dbc8fe3	0.09207132
221	0xbe377eb9	-0.17919435
222	0xbd9fb53a	-0.07798238
223	0xbd9e1fbb	-0.07720896
224	0xbd800592	-0.062510625
225	0xbc8bbd48	-0.01705803
226	0x3cfd0d1f	0.030890046
227	0x3b73b207	0.003718497
228	0x3dbda977	0.092608385
229	0x3c6160e8	0.013756014
230	0x3d7bdc62	0.06148947
231	0xbd210f10	-0.039321005
232	0xbd0c9197	-0.034318533
233	0x3d8f8a21	0.07008768
234	0xbe79eda5	-0.2440706
235	0xbe16783b	-0.14694302
236	0xbd9cdd88	-0.07659441
237	0x3d9392ce	0.07205735
238	0xbe0c6f79	-0.13714398
239	0x3e23307b	0.15936463
240	0x3db88bd9	0.09011049
241	0x3de7339f	0.11289143
242	0x3e09caf4	0.13456327
243	0x3b1ca461	0.0023901688
244	0xbe40d970	-0.18832946
245	0xbc986988	-0.018605009
246	0x3dce95b3	0.100871466
247	0x3d3e1d3b	0.046414595
248	0x3dd86316	0.10565774
249	0x3e04d599	0.12972106
250	0xbdd66e06	-0.10470204
251	0xbe92638b	-0.2859157
252	0xbe9fbdea	-0.3119958
253	0xbde552b2	-0.111974135
254	0x3caa936c	0.02082225
255	0xbcd53001	-0.026023867

fc.2.bias f4 [16]
0	0xbebb24f0	-0.3655162
1	0xbe21d1f6	-0.1580275
2	0xbe7f9fda	-0.24963322
3	0xbe219800	-0.1578064
4	0xbec1e424	-0.3786937
5	0xbec39d9e	-0.3820619
6	0xbe846529	-0.2585843
7	0xbe87dad2	-0.26534134
8	0xbe1695bc	-0.14705557
9	0xbeb891ed	-0.36048833
10	0xbe43a4ea	-0.19105878
11	0xbe96cf7c	-0.29455173
12	0x3ec5c67d	0.38627997
13	0xbcab675a	-0.020923305
14	0xbe40a6e1	-0.18813659
15	0xbde5bbbe	-0.112174496

fc.4.weight f4 [6, 16]
0	0xbe8675d5	-0.26261774
1	0x3e9a89fd	0.30183402
2	0xbe83dc02	-0.2575379
3	0xbe11e259	-0.14246501
4	0x3d3026a6	0.043005608
5	0xbdf99cf2	-0.12188138
6	0x3daee278	0.08539289
7	0x3d01f110	0.031724036
8	0xbf0ab7dc	-0.541868
9	0xbe0f1cdb	-0.13975851
10	0xbe109ecd	-0.14123078
11	0xbd6714d4	-0.056416348
12	0xbe86c4f2	-0.26322132
13	0x3e0e800b	0.13916032
14	0x3de2e29f	0.11078381
15	0x3e3eab56	0.18620047
16	0x3dd730e6	0.105073735
17	0x3da9cb20	0.08290696
18	0xbde13e71	-0.10998238
19	0xbe79bf56	-0.24389395
20	0xbcd0cae6	-0.025487375
21	0xbe9ec049	-0.31006077
22	0x3dd38ecc	0.10329971
23	0x3de52675	0.11188976
24	0xbeefc7ac	-0.46832025
25	0x3dcc2acc	0.099691
26	0x3dd46c65	0.10372237
27	0x3e9db55a	0.30802423
28	0xbea0925c	-0.31361663
29	0xbe0191e9	-0.12653317
30	0x3b8825d3	0.0041548996
31	0xbe87559e	-0.26432508
32	0xbe960db6	-0.29307336
33	0x3e06cff3	0.13165264
34	0x3e626203	0.22107701
35	0xbe7eecb9	-0.2489499
36	0x3dd6817f	0.10473918
37	0x3e8dc23e	0.27687258
38	0x3e29d03f	0.16583346
39	0x3e1c947f	0.15291022
40	0x3e826fa4	0.254758
41	0xbce84aef	-0.028356044
42	0xbe150381	-0.14552118
43	0x3decd28d	0.11563597
44	0xbeb5e221	-0.35524085
45	0x3d68d9c4	0.056848302
46	0x3e7c99b8	0.24668014
47	0x3e198f65	0.14996107
48	0x3d822a0b	0.06355675
49	0x3d1d9bf4	0.038478807
50	0x3ec19809	0.37811306
51	0x3de7e706	0.11323361
52	0x3ecde190	0.40211153
53	0x3e3e90a7	0.18609868
54	0x3dc33fb8	0.09533638
55	0x3d26c318	0.0407134
56	0xbe349ff4	-0.17639142
57	0xbe614b80	-0.22001457
58	0x3b6f568c	0.0036520092
59	0x3dec7640	0.11545992
60	0xbeaefa8a	-0.3417552
61	0xbd4df9ce	-0.05028706
62	0xbd7ab2aa	-0.061205544
63	0xbe342b16	-0.17594561
64	0x3e29313d	0.16522689
65	0x3da09229	0.07840378
66	0x3da485ff	0.0803337
67	0x3d4f6b77	0.050639596
68	0x3d90c630	0.07069051
69	0x3e94e9ac	0.29084527
70	0x3e2f8719	0.1714138
71	0xbd5a7102	-0.05333043
72	0x3da7eed1	0.081998475
73	0x3c8edea5	0.01744015
74	0xbbd0278d	-0.006352371
75	0x3e8f528e	0.27992672
76	0xbe9e24cf	-0.30887458
77	0xbe97179f	-0.2951021
78	0x3da41064	0.08010939
79	0x3df71aaa	0.12065633
80	0x3da59252	0.08084549
81	0x3e2f840f	0.1714022
82	0xbf0296a9	-0.5101114
83	0xbe280759	-0.16409053
84	0x3ce9dc16	0.028547328
85	0xbea78e60	-0.3272581
86	0x3d89f4ce	0.06736146
87	0xbe2346ea	-0.1594502
88	0xbeab89dd	-0.3350362
89	0xbcf8d886	-0.030376684
90	0x3d0d5c6b	0.034511965
91	0xbe6e7d16	-0.23289904
92	0xbebdd868	-0.37079167
93	0x3f050a49	0.5196882
94	0xbe83977e	-0.25701517
95	0xbe915c0d	-0.28390542

fc.4.bias f4 [6]
0	0xbe47d39f	-0.19514321
1	0x3ba8215c	0.00513093
2	0xbcd791f9	-0.026314722
3	0x3bba6740	0.005688578
4	0xbd230a8b	-0.039804976
5	0xbd82356e	-0.06357847

exp_avg f4 [32, 14, 2, 2]
0	0x80000004	-6e-45
1	0x80000004	-6e-45
2	0x80000004	-6e-45
3	0x80000004	-6e-45
4	0x80000004	-6e-45
5	0x80000004	-6e-45
6	0x80000004	-6e-45
7	0x80000004	-6e-45
8	0x80000004	-6e-45
9	0x00000004	6e-45
10	0x80000004	-6e-45
11	0x80000004	-6e-45
12	0x00000004	6e-45
13	0x80000004	-6e-45
14	0x80000004	-6e-45
15	0x80000004	-6e-45
16	0x80000004	-6e-45
17	0x80000004	-6e-45
18	0x00000004	6e-45
19	0x80000004	-6e-45
20	0x00000000	0.0
21	0x00000000	0.0
22	0x00000000	0.0
23	0x00000000	0.0
24	0x80000004	-6e-45
25	0x80000004	-6e-45
26	0x00000004	6e-45
27	0x80000004	-6e-45
28	0x80000004	-6e-45
29	0x80000004	-6e-45
30	0x00000004	6e-45
31	0x80000004	-6e-45
32	0x00000000	0.0
33	0x00000000	0.0
34	0x00000000	0.0
35	0x00000000	0.0
36	0x80000004	-6e-45
37	0x80000004	-6e-45
38	0x00000004	6e-45
39	0x80000004	-6e-45
40	0x80000004	-6e-45
41	0x00000004	6e-45
42	0x80000004	-6e-45
43	0x80000004	-6e-45
44	0x80000004	-6e-45
45	0x00000004	6e-45
46	0x80000004	-6e-45
47	0x80000004	-6e-45
48	0x00000004	6e-45
49	0x00000004	6e-45
50	0x00000000	0.0
51	0x80000004	-6e-45
52	0x80000004	-6e-45
53	0x80000004	-6e-45
54	0x00000004	6e-45
55	0x80000004	-6e-45
56	0x00000004	6e-45
57	0x00000004	6e-45
58	0x00000004	6e-45
59	0x00000004	6e-45
60	0x00000004	6e-45
61	0x00000004	6e-45
62	0x00000004	6e-45
63	0x00000004	6e-45
64	0x00000004	6e-45
65	0x00000004	6e-45
66	0x00000004	6e-45
67	0x00000004	6e-45
68	0x00000004	6e-45
69	0x00000004	6e-45
70	0x00000004	6e-45
71	0x00000004	6e-45
72	0x00000004	6e-45
73	0x00000000	0.0
74	0x00000004	6e-45
75	0x00000004	6e-45
76	0x00000000	0.0
77	0x00000000	0.0
78	0x00000000	0.0
79	0x00000000	0.0
80	0x00000004	6e-45
81	0x00000004	6e-45
82	0x00000004	6e-45
83	0x00000004	6e-45
84	0x00000004	6e-45
85	0x00000004	6e-45
86	0x00000004	6e-45
87	0x00000004	6e-45
88	0x00000000	0.0
89	0x00000000	0.0
90	0x00000000	0.0
91	0x00000000	0.0
92	0x00000004	6e-45
93	0x00000000	0.0
94	0x00000004	6e-45
95	0x00000004	6e-45
96	0x00000004	6e-45
97	0x00000004	6e-45
98	0x00000004	6e-45
99	0x00000004	6e-45
100	0x00000004	6e-45
101	0x00000004	6e-45
102	0x00000004	6e-45
103	0x00000004	6e-45
104	0x00000000	0.0
105	0x00000000	0.0
106	0x00000000	0.0
107	0x00000000	0.0
108	0x00000004	6e-45
109	0x00000000	0.0
110	0x00000004	6e-45
111	0x00000004	6e-45
112	0x00000004	6e-45
113	0x00000004	6e-45
114	0x00000004	6e-45
115	0x00000004	6e-45
116	0x80000004	-6e-45
117	0x00000004	6e-45
118	0x00000004	6e-45
119	0x00000004	6e-45
120	0x80000004	-6e-45
121	0x00000004	6e-45
122	0x80000004	-6e-45
123	0x00000004	6e-45
124	0x80000004	-6e-45
125	0x00000004	6e-45
126	0x80000004	-6e-45
127	0x00000004	6e-45
128	0x00000004	6e-45
129	0x80000004	-6e-45
130	0x00000004	6e-45
131	0x80000004	-6e-45
132	0x00000000	0.0
133	0x00000000	0.0
134	0x00000000	0.0
135	0x00000000	0.0
136	0x00000004	6e-45
137	0x00000004	6e-45
138	0x00000004	6e-45
139	0x00000004	6e-45
140	0x00000004	6e-45
141	0x00000004	6e-45
142	0x00000004	6e-45
143	0x00000004	6e-45
144	0x00000000	0.0
145	0x00000000	0.0
146	0x00000000	0.0
147	0x00000000	0.0
148	0x00000004	6e-45
149	0x80000004	-6e-45
150	0x00000004	6e-45
151	0x80000004	-6e-45
152	0x80000004	-6e-45
153	0x00000004	6e-45
154	0x00000004	6e-45
155	0x00000004	6e-45
156	0x80000004	-6e-45
157	0x00000004	6e-45
158	0x00000004	6e-45
159	0x00000004	6e-45
160	0x00000000	0.0
161	0x80000004	-6e-45
162	0x80000004	-6e-45
163	0x80000004	-6e-45
164	0x00000004	6e-45
165	0x80000004	-6e-45
166	0x80000004	-6e-45
167	0x80000004	-6e-45
168	0x80000004	-6e-45
169	0x80000004	-6e-45
170	0x80000004	-6e-45
171	0x80000004	-6e-45
172	0x00000004	6e-45
173	0x80000004	-6e-45
174	0x80000004	-6e-45
175	0x80000004	-6e-45
176	0x00000004	6e-45
177	0x00000004	6e-45
178	0x80000004	-6e-45
179	0x80000004	-6e-45
180	0x80000004	-6e-45
181	0x80000004	-6e-45
182	0x00000004	6e-45
183	0x80000004	-6e-45
184	0x80000004	-6e-45
185	0x00000004	6e-45
186	0x80000004	-6e-45
187	0x80000004	-6e-45
188	0x00000000	0.0
189	0x00000000	0.0
190	0x00000000	0.0
191	0x00000000	0.0
192	0x80000004	-6e-45
193	0x80000004	-6e-45
194	0x80000004	-6e-45
195	0x80000004	-6e-45
196	0x80000004	-6e-45
197	0x80000004	-6e-45
198	0x80000004	-6e-45
199	0x80000004	-6e-45
200	0x00000000	0.0
201	0x00000000	0.0
202	0x00000000	0.0
203	0x00000000	0.0
204	0x80000004	-6e-45
205	0x00000004	6e-45
206	0x80000004	-6e-45
207	0x80000004	-6e-45
208	0x00000004	6e-45
209	0x00000004	6e-45
210	0x80000004	-6e-45
211	0x80000004	-6e-45
212	0x00000004	6e-45
213	0x00000004	6e-45
214	0x80000004	-6e-45
215	0x80000004	-6e-45
216	0x00000000	0.0
217	0x00000004	6e-45
218	0x00000000	0.0
219	0x80000004	-6e-45
220	0x80000004	-6e-45
221	0x00000004	6e-45
222	0x80000004	-6e-45
223	0x80000004	-6e-45
224	0x80000004	-6e-45
225	0x80000004	-6e-45
226	0x80000004	-6e-45
227	0x80000004	-6e-45
228	0x80000004	-6e-45
229	0x00000004	6e-45
230	0x80000004	-6e-45
231	0x80000004	-6e-45
232	0x00000004	6e-45
233	0x00000004	6e-45
234	0x00000004	6e-45
235	0x00000004	6e-45
236	0x80000004	-6e-45
237	0x80000004	-6e-45
238	0x00000004	6e-45
239	0x00000004	6e-45
240	0x80000004	-6e-45
241	0x00000004	6e-45
242	0x00000004	6e-45
243	0x00000004	6e-45
244	0x00000000	0.0
245	0x00000000	0.0
246	0x00000000	0.0
247	0x00000000	0.0
248	0x00000004	6e-45
249	0x80000004	-6e-45
250	0x80000004	-6e-45
251	0x00000004	6e-45
252	0x80000004	-6e-45
253	0x00000004	6e-45
254	0x00000004	6e-45
255	0x80000004	-6e-45
